MicroAOD/data/ParticleNetSV/V01/model.onnx (onnx, 921033 bytes, 30 tensors)

fc.0.0.weight f4 [128, 256]
0.20709808 0.20148337 -0.08000034 0.40726286 -0.20772392 0.09494067 0.08630969 0.07140224
0.16337734 0.046500552 0.01050498 -0.041839022 0.06451533 0.07627929 0.3131433 -0.11727734
-0.02783611 0.08979699 0.07163506 0.015045106 -0.040315814 0.1716701 0.04934401 -0.28908563
0.111883566 0.029565858 0.06657096 -0.00029229774 0.2907226 0.09835807 -0.2227695 -0.24520645
-0.09228197 0.051133867 0.029193826 0.13612603 0.14050232 0.18470673 -0.33357972 -0.058507487
0.14717664 0.22166759 0.11933092 0.036713146 0.19264671 0.1337936 0.18765286 0.04581163
-0.1395344 0.12999116 0.21828718 -0.07949862 -0.058709826 -0.078959286 -0.16528684 -0.0015877639
-0.033434674 0.42834634 -0.36126316 -0.065050766 0.03016766 -0.3360103 -0.036634985 -0.2334664
-0.01786922 0.006243338 -0.041235786 -0.27723464 -0.3760511 0.030875916 0.00068625296 -0.020036314
0.06109573 -0.051694173 0.07585213 0.08231078 -0.0026220677 -0.1608553 0.1485771 0.33117265
0.2958284 -0.16656572 0.26624092 0.020636823 -0.08382169 0.20380484 -0.13587573 -0.24005276
-0.030527933 -0.13545987 -0.1319435 0.055601258 0.03959502 -0.042945836 -0.23457453 -0.09219362
-0.2383312 -0.08430828 -0.48745838 -0.15970764 -0.09632648 0.36277315 -0.26669323 0.0464821
0.004240553 -0.26923254 0.016646525 -0.18894859 -0.011665362 0.056590077 -0.028023116 0.22156243
-0.36516723 0.23409879 0.0026028974 -0.4339913 0.22008471 -0.09274667 0.061881643 0.04740092
-0.0010937114 -0.3303135 0.08550979 0.19679016 0.0053688767 -0.045223903 -0.28660432 -0.12355256
-0.06294713 0.14905486 0.11159327 0.27970466 0.1428833 -0.1751426 0.10597991 0.26479787
0.032189745 -0.18345006 -0.115674295 -0.36887136 -0.02216513 0.0658709 -0.010024254 0.041675515
-0.09031415 8.157991e-05 -0.613646 0.034004226 -0.048929222 0.030566463 0.018135658 0.16297913
0.07392882 0.119383395 0.028219951 0.26159197 -0.0691659 0.044343922 0.1585438 0.27438772
0.28144783 0.045211885 -0.40177175 -0.07332625 0.39887655 -0.023435937 0.09906642 -0.23354143
0.21236998 -0.11167963 0.15413357 -0.1896352 -0.20087044 0.027395405 -0.2738779 -0.09440884
-0.023930948 -0.22304128 -0.61938494 -0.012548549 -0.12535897 0.106563136 0.081825554 -0.066667795
0.22904658 -0.025199624 0.040124334 0.030268356 -0.037139084 -0.16722146 0.35008538 -0.19252814
0.2467902 0.045435507 -0.006289443 -0.34466922 0.3197932 0.27188542 0.114068195 0.050631583
-0.099384956 -0.33888048 -0.2061032 0.06724149 -0.4907021 0.115815185 0.046584304 0.14301963
0.12277115 0.21486917 0.00835767 -0.122395255 -0.2362963 0.08335091 -0.0467721 0.25369903
-0.27926898 -0.23483299 -0.17704806 0.17646623 -0.03629441 0.1454498 0.24022453 0.06907512
0.06492418 -0.039720748 0.18342434 -0.08395635 -0.15473266 0.17693444 0.159526 -0.19410405
0.2333537 -0.15711436 -0.06927981 0.10195591 -0.13960756 0.20444863 -0.14496924 -0.060744032
0.20084806 -0.1233653 1.6892805e-05 -0.4995233 0.45068163 -0.18153739 -0.24047254 -0.030578118
0.27699724 0.083867885 -0.08082837 0.22295688 0.104479656 0.26473716 0.08052518 0.39850423
00000000: 8511 543e a851 4e3e 38d7 a3bd c284 d03e
00000010: 94b5 54be 4170 c23d 22c3 b03d 563b 923d
00000020: 644c 273e 5d77 3e3d 141d 2c3c 655f 2bbd
00000030: 9d20 843d 5138 9c3d 5254 a03e 1a2f f0bd
00000040: 8e08 e4bc 7ce7 b73d 67b5 923d c07f 763c
00000050: 3222 25bd 49ca 2f3e f21c 4a3d 0803 94be
00000060: 3623 e53d 1934 f23c 5b56 883d 8a3f 99b9
00000070: 98d9 943e f56f c93d b01d 64be 6617 7bbe
00000080: 54fe bcbd bf71 513d e427 ef3c 9f64 0b3e
00000090: d7df 0f3e c323 3d3e f6ca aabe 8ca5 6fbd
000000a0: 79b5 163e d4fc 623e c563 f43d 8660 163d
000000b0: 2e45 453e 3101 093e 1228 403e faa4 3b3d
000000c0: 1be2 0ebe 671c 053e ad86 5f3e 2cd0 a2bd
000000d0: b779 70bd 68b5 a1bd f440 29be 841c d0ba
000000e0: ccf2 08bd 3650 db3e 7cf7 b8be 5639 85bd
000000f0: 2b22 f73c 8b09 acbe 910e 16bd d111 6fbe
00000100: 7862 92bc ea94 cc3b dbe6 28bd b3f1 8dbe
00000110: c589 c0be 7def fc3c a8e5 333a 3223 a4bc
00000120: 843f 7a3d 45bd 53bd 5d58 9b3d 8e92 a83d
00000130: ffd6 2bbb 40b7 24be 9824 183e 768f a93e
00000140: d276 973e 3490 2abe bb50 883e 8e0e a93c
00000150: b5aa abbd 37b2 503e 0223 0bbe 64d0 75be
00000160: b715 fabc feb5 0abe 321c 07be 25be 633d
00000170: 632e 223d f9e7 2fbd 4e34 70be 02d0 bcbd
00000180: 180d 74be d2a9 acbd 2594 f9be 668a 23be
00000190: d146 c5bd 67bd b93e 048c 88be 0464 3e3d
000001a0: 56f4 8a3b d9d8 89be 4b5e 883c bd7b 41be
000001b0: 1320 3fbc ffca 673d bc90 e5bc 43e1 623e
000001c0: 33f7 babe 98b7 6f3e 5f95 2a3b 1c34 debe
000001d0: e35d 613e f7f1 bdbd 9b77 7d3d 7827 423d
000001e0: dd5a 8fba da1e a9be c21f af3d 5c83 493e
000001f0: 67ed af3b b33c 39bd cdbd 92be 2009 fdbd
00000200: 6dea 80bd d6a1 183e 038b e43d 7335 8f3e
00000210: 0050 123e 9558 33be ff0b d93d 9693 873e
00000220: 65d9 033d 55da 3bbe a5e6 ecbd b5dc bcbe
00000230: a693 b5bc 53e7 863d c53c 24bc f2b3 2a3d
00000240: a0f6 b8bd e115 ab38 e717 1dbf 0448 0b3d
00000250: 026a 48bd 8566 fa3c 3b91 943c 00e4 263e
00000260: fe67 973d 487f f43d 872d e73c 62ef 853e
00000270: daa6 8dbd f9a1 353d 4e59 223e 8c7c 8c3e
00000280: ee19 903e 1930 393d 07b5 cdbe 132c 96bd
00000290: 8c39 cc3e b9fc bfbc 56e3 ca3d 7c25 6fbe
000002a0: 8477 593e 4ab8 e4bd 31d5 1d3e bb2f 42be
000002b0: fbb0 4dbe 546c e03c b939 8cbe 6c59 c1bd
000002c0: d60a c4bc ef64 64be 0390 1ebf 6e98 4dbc
000002d0: 1a5e 00be c63d da3d 2894 a73d 2089 88bd
000002e0: 308b 6a3e 716f cebc 6a59 243d 58f5 f73c
000002f0: 271f 18bd 1a3c 2bbe 643e b33e 1926 45be
00000300: 92b6 7c3e 951a 3a3d ac17 cebb 7c78 b0be
00000310: efbb a33e 9134 8b3e 969c e93d 1063 4f3d
00000320: 578a cbbd be81 adbe b80c 53be e8b5 893d
00000330: 4e3d fbbe 8330 ed3d 2fcf 3e3d bd73 123e
00000340: 716f fb3d aa06 5c3e 9cee 083c 5daa fabd
00000350: a8f7 71be e2b3 aa3d 1a94 3fbd d7e4 813e
00000360: 58fc 8ebe 0f78 70be 164c 35be 90b3 343e
00000370: 72a9 14bd cbf0 143e 6bfd 753e 4277 8d3d
00000380: f8f6 843d 39b2 22bd 97d3 3b3e 4ff1 abbd
00000390: 3d72 1ebe 4d2e 353e c95a 233e 36c3 46be
000003a0: 46f4 6e3e 96e2 20be 93e2 8dbd 43ce d03d
000003b0: 49f5 0ebe fb5a 513e d172 14be bcce 78bd
000003c0: 1dab 4d3e f2a6 fcbd 06b5 8d37 85c1 ffbe
000003d0: bebf e63e f0e4 39be 6f3e 76be f67e fabc
000003e0: 95d2 8d3e edc2 ab3d 5889 a5bd cf4e 643e
000003f0: 6ef9 d53d a18b 873e 63ea a43d bf08 cc3e

fc.0.0.bias f4 [128]
0.34580457 -0.051579755 -0.043591432 -0.09267795 -0.19685231 0.3504391 0.08437499 -0.13034566
0.0005489986 -0.12436685 0.025836006 0.29776707 -0.082617745 -0.08140378 0.13871492 -0.020234596
0.30129504 0.27187726 0.14997274 0.020488359 0.28068322 -0.04629951 -0.037320264 0.22111897
0.023081228 -0.07368258 0.34049928 -0.045236655 0.23902471 -0.0423996 0.29961586 0.14596297
-0.05388923 -0.077620566 -0.07848686 0.31444556 0.25168797 0.05714237 -0.0338426 -0.08239693
-0.051204495 -0.05190096 0.13711004 -0.12701091 0.29345065 0.10844356 0.2970409 0.26863405
0.30178228 -0.005269413 -0.0323061 0.30405068 0.3791911 -0.03727325 0.32810137 0.14961538
0.14581876 -0.052361332 0.09950669 0.006286744 -0.15366021 0.2573339 0.26800412 -0.059655122
0.25314742 -0.036942683 0.23869272 0.2201017 -0.038214527 -0.14982446 -0.0015744589 0.25970468
0.08124343 0.3530032 -0.04627887 0.10046981 0.067543 -0.07476415 -0.067642845 0.20386566
0.2159362 -0.07805943 0.1961802 -0.069397524 -0.017315835 0.05829731 -0.056367353 0.2705973
-0.1441732 0.23865816 0.27115884 0.2991617 0.22712652 0.33093548 -0.032840226 -0.069857106
-0.055289306 -0.059754044 -0.09799704 0.23248558 -0.028107982 -0.03576015 -0.12104757 0.28545073
-0.061142378 0.25601435 0.01875249 -0.07017538 0.16193473 0.18759671 -0.06648956 -0.088385455
0.21216732 0.26926997 0.31771195 -0.015755646 -0.19646528 -0.016850919 -0.14778265 0.29452315
0.21751967 0.19037387 -0.026483871 0.06515555 0.17865053 -0.06347555 0.30926785 -0.051755115
00000000: 4c0d b13e 4b45 53bd ee8c 32bd f0cd bdbd
00000010: a793 49be c16c b33e cbcc ac3d 5579 05be
00000020: acea 0f3a 0cb4 febd 08a6 d33c ed74 983e
00000030: 7e33 a9bd 06b7 a6bd 490b 0e3e 06c3 a5bc
00000040: 5843 9a3e 7f33 8b3e 7492 193e 34d7 a73c
00000050: b6b5 8f3e 8ea4 3dbd 22dd 18bd 036d 623e
00000060: d814 bd3c e4e6 96bd ec55 ae3e 124a 39bd
00000070: e5c2 743e 34ab 2dbd 4067 993e 5177 153e
00000080: f4ba 5cbd 88f7 9ebd b8bd a0bd 02ff a03e
00000090: 3fdd 803e 1e0e 6a3d 8a9e 0abd b9bf a8bd
000000a0: cebb 51bd 1a96 54bd 9366 0c3e 260f 02be
000000b0: 2a3f 963e a817 de3d bf15 983e 678a 893e
000000c0: 3583 9a3e 0aab acbb 6753 04bd 88ac 9b3e
000000d0: 5625 c23e d6ab 18bd e7fc a73e c634 193e
000000e0: 8351 153e d678 56bd 2aca cb3d 0801 ce3b
000000f0: 1a59 1dbe 45c1 833e d637 893e ee58 74bd
00000100: 8a9c 813e 3651 17bd dd6b 743e 5762 613e
00000110: d686 1cbd 956b 19be 135e ceba 03f8 843e
00000120: f562 a63d d6bc b43e ea8e 3dbd 1ec3 cd3d
00000130: fc53 8a3d f21d 99bd 5588 8abd 29c2 503e
00000140: 611e 5d3e 9fdd 9fbd 76e3 483e 4a20 8ebd
00000150: f0d9 8dbc 29c9 6e3d 74e1 66bd bb8b 8a3e
00000160: 24a2 13be ce62 743e 55d5 8a3e b92b 993e
00000170: db93 683e 6070 a93e 7983 06bd 3e11 8fbd
00000180: 0a77 62bd a8c0 74bd acb2 c8bd b310 6e3e
00000190: b642 e6bc 3c79 12bd cae7 f7bd 9926 923e
000001a0: 6e70 7abd 5014 833e d29e 993c 1cb8 8fbd
000001b0: 38d2 253e 5a19 403e ae2b 88bd 6f03 b5bd
000001c0: 6442 593e c1dd 893e 24ab a23e fc11 81bc
000001d0: 322e 49be f00a 8abc 5654 17be bdcb 963e
000001e0: 7abd 5e3e 5ef1 423e b4f4 d8bc 4670 853d
000001f0: 2af0 363e 78ff 81bd 5b58 9e3e 2cfd 53bd

fc.1.weight f4 [4, 128]
-0.16075853 -0.06408097 -0.074632004 0.00877778 -0.34711307 0.07314431 0.067728825 -0.007931864
0.015740637 -0.102815494 0.13705496 -0.20133218 0.017650161 -0.06520166 -0.46030217 0.12084758
-0.114218056 0.18934411 0.0838216 0.09089807 -0.16786782 -0.021835316 -0.0020448663 0.15718515
0.09840735 -0.052792765 -0.19533238 0.013948409 -0.11056847 -0.11217299 0.049416643 -0.030572137
0.04861877 0.0649198 0.12025607 -0.22417605 0.081936754 0.074557155 0.071526974 0.047895066
0.07345944 0.010442825 0.11373756 0.06453228 -0.05853641 0.10794926 -0.07827162 -0.17375319
-0.19182163 -0.083501294 -0.14968924 -0.17758137 -0.068367474 -0.030340996 -0.66797704 0.11236719
-0.0585621 -0.11640218 0.058383398 0.006856135 0.1321556 -0.24842685 -0.07479772 0.008592286
0.14722784 -0.04892609 -0.20351358 0.10233809 0.123682454 0.08649513 -0.015029369 -0.10180201
-0.007634817 -0.28771877 -0.05388192 0.11850279 -0.076285735 -0.03440193 0.099627376 0.13560109
-0.2088055 0.03872865 0.105482474 -0.030846048 0.06202834 0.15712352 0.07615965 -0.13899387
0.030014537 -0.008331011 0.109168075 -0.18431856 -0.04276417 0.01780265 -0.081100196 0.030629864
0.024021897 0.045716964 -0.14379716 -0.10157836 0.0053498913 0.05286309 0.059244238 -0.23768379
0.07819391 -0.07289454 2.8496052e-05 -0.040385783 0.1282771 -0.2338782 0.032154195 0.0714344
-0.21646859 -0.5121441 -0.10090203 -0.06065723 0.060128324 0.025386158 0.075152196 -0.029141515
-0.24102229 0.16926554 -0.0635902 0.1778049 0.10548365 -0.09169437 -0.0404047 0.0742221
0.05173658 -0.1904498 0.031841494 0.072856635 0.27022782 -0.21873498 -0.331833 0.0027440968
0.04302364 0.030744068 0.15120392 0.093483895 0.010506831 0.0077157905 0.01668978 0.08544865
0.079735145 0.029346516 0.09538195 0.12268479 -0.020355174 -0.006647261 0.07689977 -0.113425635
-0.3151255 -0.038791064 0.28007168 0.17667231 -0.0008033561 -0.0045601116 -0.0627052 -0.34406522
-0.05228503 -0.017109841 0.060557306 0.055274837 -0.6225251 0.06959509 0.09196174 0.003378935
0.005545415 -0.046681844 -0.15946296 0.043612354 -0.0925515 -0.4956173 -0.007336882 -0.04488953
-0.09581817 -0.04991862 0.17625092 0.039261885 -0.10035017 0.022160646 0.14950645 -0.18694717
-0.23939897 0.0013684945 -0.2547898 -0.025675606 -0.13956115 0.0026749813 0.099294476 -0.09527148
-0.0715249 0.012136019 0.04690296 -0.09417152 0.10603668 -0.029907111 -0.10419947 -0.11180925
0.046708155 0.063151196 -0.020239986 0.10060839 0.016011309 0.07585353 0.023450676 -0.28375143
0.09232181 -0.08059664 -0.22590253 0.074171424 -0.037301663 0.09756832 0.0025908141 0.14256845
0.024823263 0.019638963 0.12859 0.07766297 0.19255373 0.033405013 0.01733613 -0.036376923
-0.030259535 0.06388566 0.0015324161 0.10315861 0.071182415 0.060285524 0.025221922 0.06601763
0.02486578 -0.07851997 0.06774916 0.008247692 -0.17131168 0.105247624 0.014728021 -0.051202774
0.12007813 -0.23149689 -0.011036636 0.07480169 -0.17111263 0.057674304 0.09235866 0.0066051483
-0.1929408 -0.28993228 0.07198307 -0.5023226 -0.34673923 -0.06343543 -0.04604581 -0.029965656
00000000: e29d 24be e23c 83bd aad8 98bd aed0 0f3c
00000010: ceb8 b1be afcc 953d 69b5 8a3d a6f4 01bc
00000020: 82f2 803c ee90 d2bd 2358 0c3e 062a 4ebe
00000030: 1297 903c 7388 85bd baac ebbe f07e f73d
00000040: 28eb e9bd 6ce3 413e a9aa ab3d c428 ba3d
00000050: 8be5 2bbe fadf b2bc 2a03 06bb 25f5 203e
00000060: cb89 c93d 3a3d 58bd 3605 48be de87 643c
00000070: b971 e2bd f4ba e5bd 1b69 4a3d 6b72 fabc
00000080: 7a24 473d acf4 843d d048 f63d 688e 65be
00000090: 75ce a73d 6cb1 983d bc7c 923d 9e2d 443d
000000a0: e771 963d 6218 2b3c 3def e83d 8029 843d
000000b0: e0c3 6fbd 8014 dd3d df4c a0bd 5bec 31be
000000c0: e46c 44be ba02 abbd 2348 19be e4d7 35be
000000d0: 3f04 8cbd ae8d f8bc 8b00 2bbf c520 e63d
000000e0: d0de 6fbd 4464 eebd 6e23 6f3d 6ea9 e03b
000000f0: cc53 073e 9c63 7ebe 8c2f 99bd a9c6 0c3c
00000100: e5c2 163e b966 48bd dd65 50be a296 d13d
00000110: 3a4d fd3d 5c24 b13d be3d 76bc 927d d0bd
00000120: 7d2d fabb e04f 93be 4ab3 5cbd 97b1 f23d
00000130: b23b 9cbd 0ae9 0cbd 7009 cc3d 03db 0a3e
00000140: 1cd1 55be efa1 1e3d 3207 d83d dab0 fcbc
00000150: 6e11 7e3d fde4 203e 97f9 9b3d 6954 0ebe
00000160: 0ce1 f53c cb7e 08bc 8393 df3d 01be 3cbe
00000170: 7b29 2fbd ddd6 913c dc17 a6bd 7beb fa3c
00000180: 92c9 c43c b641 3b3d 903f 13be 5108 d0bd
00000190: 244e af3b f886 583d 16aa 723d 6163 73be
000001a0: 2124 a03d bc49 95bd ce0a ef37 906b 25bd
000001b0: 125b 033e c47d 6fbe 1eb4 033d 334c 923d
000001c0: f1a9 5dbe e01b 03bf b9a5 cebd b773 78bd
000001d0: 1e49 763d a2f6 cf3c 65e9 993d 30ba eebc
000001e0: 8cce 76be f253 2d3e 943b 82bd 7d12 363e
000001f0: d007 d83d 42ca bbbd 667f 25bd c201 983d
00000200: bce9 533d 4605 43be 3a6c 023d dc35 953d
00000210: 4d5b 8a3e 10fc 5fbe 04e6 a9be 4ed6 333b
00000220: 8e39 303d fcda fb3c 33d5 1a3e 7c74 bf3d
00000230: d824 2c3c bed4 fc3b 01b9 883c b4ff ae3d
00000240: 2e4c a33d 1b68 f03c 9d57 c33d 2a42 fb3d
00000250: e5bf a6bc 44d1 d9bb a07d 9d3d b34b e8bd
00000260: 2158 a1be 61e3 1ebd 8e65 8f3e 96e9 343e
00000270: 5198 52ba fd6c 95bb 956b 80bd 5129 b0be
00000280: d428 56bd f029 8cbc f00a 783d de67 623d
00000290: ce5d 1fbf df87 8e3d 7056 bc3d 1f71 5d3b
000002a0: 50b6 b53b 7635 3fbd 424a 23be dea2 323d
000002b0: a48b bdbd 8dc1 fdbe 3a6a f0bb 15de 37bd
000002c0: 513c c4bd 7877 4cbd 1f7b 343e 12d1 203d
000002d0: 6484 cdbd 3e8a b53c 3818 193e 146f 3fbe
000002e0: 0125 75be 0e5f b33a cf73 82be a655 d2bc
000002f0: 1ee9 0ebe bd4e 2f3b e75a cb3d b21d c3bd
00000300: a67b 92bd 27d6 463c 511d 403d ffdc c0bd
00000310: c229 d93d c2ff f4bc 8866 d5bd 40fc e4bd
00000320: 0d51 3f3d 6a55 813d 54ce a5bc c60b ce3d
00000330: 262a 833c 1859 9b3d a21b c03c de47 91be
00000340: 3813 bd3d da0f a5bd fe52 67be 30e7 973d
00000350: a1c9 18bd e6d1 c73d a6ca 293b 77fd 113e
00000360: 285a cb3c e4e1 a03c 19ad 033e c30d 9f3d
00000370: ce2c 453e b2d3 083d 8004 8e3c f8ff 14bd
00000380: d8e2 f7bc 7cd6 823d 5adb c83a d244 d33d
00000390: 16c8 913d f4ed 763d 349e ce3c 4034 873d
000003a0: 52b3 cb3c 14cf a0bd 12c0 8a3d 5421 073c
000003b0: 546c 2fbe 118c d73d cc4d 713c 00ba 51bd
000003c0: 86eb f53d 850d 6dbe 02d3 34bc a131 993d
000003d0: 2638 2fbe e43b 6c3d 8a26 bd3d 0070 d83b
000003e0: 4692 45be 0172 94be dc6b 933d 3798 00bf
000003f0: ce87 b1be 6fea 81bd 889a 3cbd 897a f5bc

fc.1.bias f4 [4]
-0.28129527 -0.16013195 -0.24268544 0.53425735
00000000: ef05 90be a1f9 23be 8882 78be 17c5 083f

373 f4 [64, 40, 1, 1]
0.21342042 0.117838465 -0.040896084 0.29221654 -0.030372014 0.025508562 -0.05042333 0.02475965
-0.12082328 -0.043736264 0.0058387937 -0.027514841 -0.006707978 -0.0023262717 0.116568975 0.019383265
-0.006340787 0.018847367 0.026582314 0.105675176 0.27424967 0.27108303 0.16806631 -0.8033175
0.08189422 0.07571228 0.049330026 -0.055758722 0.008660056 0.07326064 -0.01015918 -0.020047897
-0.026849981 -0.21104483 -0.01432695 0.039032154 0.009329885 0.039624225 -0.008361951 0.12559111
-0.0644452 -0.22332531 -0.043153577 0.06452241 -0.13188042 -0.10598564 -0.009994257 -0.014642828
-0.110825315 -0.11584881 -0.3499101 -0.20483112 -0.021946384 0.015005649 -0.07904701 -0.15841842
-0.17013627 -0.09147311 -0.06909153 0.13958046 -0.14775875 -0.11947526 -0.27369434 0.33904582
-0.29459333 0.04308091 0.070258215 -0.10987734 -0.034884565 -0.029255915 -0.47723413 -0.09159757
0.009869993 0.04679378 0.07682381 0.08867343 0.053297233 -0.07794996 -0.015619215 0.1333414
1.0362606 0.84647167 0.14732589 0.2602866 -0.13630538 -0.08330703 -0.24038514 0.38294423
0.15722066 -0.2663749 -0.04504066 0.065098345 0.14481449 0.025947109 -0.04813744 -0.7038408
-0.045548033 0.021324264 -0.090585016 -0.10782669 0.74476284 0.48861036 -0.033961724 -12.976754
-0.49650937 0.06339386 -0.13874646 0.20859593 0.21376307 -0.032189023 0.033470467 0.0070177405
0.092527576 0.06046647 0.13298894 0.29435417 -0.07733976 -0.06757621 0.02326407 0.031728506
0.092120685 0.06701628 0.10979218 0.16626833 -0.010069866 0.061529275 -0.05256103 0.03960308
-0.073887445 -0.023927316 -0.006010723 0.01807549 -0.01905286 0.07479704 0.015016129 -0.16386123
-0.11813524 0.020476285 0.044307098 0.054262467 0.075517274 0.038020317 0.04980574 0.13743813
0.118415825 -1.3679223 -0.11455831 -0.03668689 -0.035962977 0.04640442 -0.007365431 0.02025499
-0.0050819237 0.028370814 0.04770911 -0.035226654 0.10361729 -0.007109714 0.034133237 -0.010428715
-0.15570027 -0.14149508 -0.04867437 0.05127512 0.012485496 -0.04053235 0.14157051 -0.085166276
0.011168322 0.028752623 0.009942613 0.0011439895 -0.055332843 0.017240195 0.02532431 -0.06887314
0.0066042286 -0.0929862 -0.087833375 0.07285364 -0.13805808 -0.16243131 -0.44005752 -0.095045
-0.5322041 -0.009360741 -0.057957377 0.09237181 -0.014935673 -0.08367189 -0.12807575 0.019242015
-0.007902106 -0.01175418 -0.085094795 0.07720274 -0.08985881 -0.013978027 -0.00061433576 0.09296749
-0.20319429 -0.18911643 -0.039916262 -0.3191351 -0.014546655 -0.15416697 -0.029584354 0.024970593
0.024361327 -0.1631677 -0.012292106 -0.03996922 -0.007679054 -0.0032131395 -0.034763675 -0.052259713
-0.12553498 -0.0072600655 -0.07812 0.039818823 0.14783332 0.13582727 0.12779334 -0.53529716
0.20806478 0.09753911 -0.023120644 -0.21420348 -0.022308985 0.010073616 0.046554495 -0.037138633
-0.12787597 -0.20941286 0.016510455 -0.09068856 -0.09980603 -0.0037333604 0.039689694 0.035406496
0.04367032 0.028893856 -0.111512825 -0.12228175 0.076718844 -0.11076569 -0.042878315 -0.060757317
0.024144653 -0.10120183 -0.02466267 -0.011813797 0.12249684 0.1225404 0.038053967 -0.034093462
00000000: e28a 5a3e 4b55 f13d a782 27bd 689d 953e
00000010: bbce f8bc 55f7 d03c b288 4ebd c0d4 ca3c
00000020: 3272 f7bd cc24 33bd 5a53 bf3b ce66 e1bc
00000030: 99ce dbbb 5d74 18bb b7bb ee3d a7c9 9e3c
00000040: 60c6 cfbb cb65 9a3c 27c3 d93c 3a6c d83d
00000050: 746a 8c3e 65cb 8a3e 9319 2c3e 37a6 4dbf
00000060: 28b8 a73d 0a0f 9b3d 480e 4a3d 4263 64bd
00000070: e8e2 0d3c ad09 963d b072 26bc 7d3b a4bc
00000080: 7ef4 dbbc 231c 58be 95bb 6abc 2ee0 1f3d
00000090: 60dc 183c 034d 223d 9100 09bc f59a 003e
000000a0: d8fb 83bd 64af 64be cec1 30bd 5324 843d
000000b0: a90b 07be 000f d9bd f4be 23bc 79e8 6fbc
000000c0: 62f8 e2bd 2442 edbd 6b27 b3be 40bf 51be
000000d0: e7c8 b3bc 41da 753c 66e3 a1bd 7038 22be
000000e0: 3438 2ebe 4156 bbbd dc7f 8dbd 2eee 0e3e
000000f0: 124e 17be 72af f4bd aa21 8cbe 6a97 ad3e
00000100: f0d4 96be 9c75 303d 8ae3 8f3d 5f07 e1bd
00000110: 1ee3 0ebd 1aaa efbc 0858 f4be 8297 bbbd
00000120: c0b5 213c d6aa 3f3d cd55 9d3d 6a9a b53d
00000130: 334e 5a3d 3ba4 9fbd bce7 7fbc a68a 083e
00000140: 30a4 843f 5eb2 583f 99dc 163e 4944 853e
00000150: a393 0bbe e09c aabd 8627 76be 4411 c43e
00000160: 74fe 203e 4a62 88be 8e7c 38bd 4852 853d
00000170: 404a 143e 088f d43c c42b 45bd e92e 34bf
00000180: 9390 3abd 39b0 ae3c a384 b9bd 3dd4 dcbd
00000190: c7a8 3e3f 232b fa3e 731b 0bbd c9a0 4fc1
000001a0: 7a36 febe a4d4 813d 8d13 0ebe 2c9a 553e
000001b0: b5e4 5a3e a3d8 03bd 5418 093d 13f5 e53b
000001c0: 197f bd3d b0ab 773d 412e 083e 97b5 963e
000001d0: 4f64 9ebd 6565 8abd 4a94 be3c c0f5 013d
000001e0: c5a9 bc3d d53f 893d b9da e03d 3f42 2a3e
000001f0: 14fc 24bc 1f06 7c3d 3c4a 57bd d736 223d
00000200: 4d52 97bd 3803 c4bc 99f5 c4bb 0d13 943c
00000210: be14 9cbc 312f 993d 3606 763c 3dcb 27be
00000220: e4f0 f1bd e2bd a73c 5c7b 353d 5242 5e3d
00000230: cda8 9a3d 31bb 1b3d 1b01 4c3d 95bc 0c3e
00000240: ff83 f23d 1418 afbf 8c9d eabd fe44 16bd
00000250: ea4d 13bd 9012 3e3d b759 f1bb cbed a53c
00000260: 4486 a6bb e969 e83c a16a 433d d349 10bd
00000270: 4d35 d43d 9bf8 e8bb 4bcf 0b3d 33dd 2abc
00000280: e46f 1fbe 16e4 10be c75e 47bd dc05 523d
00000290: f78f 4c3c 4005 26bd dcf7 103e a86b aebd
000002a0: 56fb 363c 9f8a eb3c 57e6 223c ebf1 953a
000002b0: b1a4 62bd 4f3b 8d3c ed74 cf3c 5c0d 8dbd
000002c0: 4968 d83b 8c6f bebd fce1 b3bd 4a34 953d
000002d0: 195f 0dbe 6554 26be 384f e1be f4a6 c2bd
000002e0: 873e 08bf cb5d 19bc b764 6dbd 6e2d bd3d
000002f0: c1b4 74bc 2b5c abbd 4a26 03be 6ea1 9d3c
00000300: d677 01bc 9b94 40bc 2e46 aebd 781c 9e3d
00000310: e507 b8bd 1804 65bc 600b 21ba bd65 be3d
00000320: 2a12 50be bda7 41be 3c7f 23bd ad65 a3be
00000330: 1855 6ebc f2dd 1dbe e35a f2bc 218f cc3c
00000340: 6891 c73c 6f15 27be d464 49bc c4b6 23bd
00000350: 93a0 fbbb 8993 52bb 5b64 0ebd 480e 56bd
00000360: 3e8c 00be d8e5 edbb 61fd 9fbd 1019 233d
00000370: 9e61 173e 4e16 0b3e 42dc 023e 3c09 09bf
00000380: ef0e 553e 96c2 c73d 8167 bdbc 2858 5bbe
00000390: 55c1 b6bc cf0b 253c edaf 3e3d ae1e 18bd
000003a0: ebf1 02be 5370 56be ef40 873c ecba b9bd
000003b0: 1b67 ccbd 65ab 74bb a991 223d 6706 113d
000003c0: a6df 323d cfb2 ec3c d660 e4bd db6e fabd
000003d0: c51e 9d3d 1fd9 e2bd 2ca1 2fbd aadc 78bd
000003e0: 02cb c53c e842 cfbd 5e09 cabc a88e 41bc
000003f0: a0df fa3d 76f6 fa3d 7ade 1b3d 96a5 0bbd

374 f4 [64]
0.74741244 0.28352994 0.7814278 -0.40623328 -0.32623136 -0.64046687 -0.25951627 -0.11382145
0.1250759 -0.6047453 -0.1181677 0.08287973 -1.147068 -0.15036252 -0.594977 -0.13269497
0.33317506 -0.34240374 0.85575175 -0.09281254 -0.34734726 -0.4446655 0.6168422 0.36269844
0.22990194 -0.22640525 0.51850474 -0.35651755 0.3680039 1.2830316 0.5050637 0.19364457
-0.25595227 -0.1856381 -0.788783 0.08625749 -0.9193065 -0.22569194 0.48432806 -0.47353843
-1.2471638 -0.33603668 -0.75765246 0.8001805 -0.3151089 0.8262727 -0.36806488 0.59798664
-0.27213633 0.39010745 -0.636601 0.24810284 -0.24460995 -0.2024523 0.013443956 0.16914445
0.22872555 0.23984359 -0.29358116 -0.3854025 -0.34475723 0.56002164 -0.2639818 0.5239426
00000000: 6c56 3f3f d62a 913e a70b 483f cffd cfbe
00000010: cc07 a7be a3f5 23bf 51df 84be 381b e9bd
00000020: e613 003e 97d0 1abf e801 f2bd d9bc a93d
00000030: 20d3 92bf a2f8 19be 6a50 18bf 31e1 07be
00000040: ec95 aa3e 8b4f afbe 8c12 5b3f 8014 bebd
00000050: 80d7 b1be 32ab e3be 5fe9 1d3f 9cb3 b93e
00000060: 6a6b 6b3e c7d6 67be babc 043f 7889 b6be
00000070: 026b bc3e 613a a43f db4b 013f c34a 463e
00000080: 2d0c 83be ea17 3ebe afed 49bf c4a7 b03d
00000090: ac57 6bbf ca1b 67be d9f9 f73e a173 f2be
000000a0: 10a3 9fbf 000d acbe 83f5 41bf a1d8 4c3f
000000b0: f455 a1be 9c86 533f 0073 bcbe a715 193f
000000c0: 7455 8bbe 2abc c73e 48f8 22bf ac0e 7e3e
000000d0: 087b 7abe a84f 4fbe 0a44 5c3c 3434 2d3e
000000e0: 0837 6a3e 8f99 753e 4550 96be 7a53 c5be
000000f0: 0584 b0be 945d 0f3f 9f28 87be 1a21 063f

376 f4 [64, 64, 1, 1]
-0.23132202 0.2154726 -0.14726226 0.04529168 0.10847113 -0.07461759 0.12606904 -0.06779354
0.1797641 0.051362023 0.053655952 -0.038698934 -0.07562027 0.040437914 0.053428423 0.22246806
-0.121967256 0.25131032 0.04222897 0.066008754 0.080566436 0.16209781 -0.2487924 0.0072334684
0.16376357 0.24219874 0.025196895 0.09642953 0.0005252184 -0.058336154 -0.2793825 0.025340006
0.07411438 0.09966918 0.057452332 0.03668197 0.06263672 -0.064322904 -0.18267494 0.05603649
-0.03913094 -0.040208332 0.02458253 -0.04706218 0.103572875 -0.009042435 0.13480246 0.01519953
0.041114368 -0.10851099 0.124914676 -0.016922435 0.09306174 0.07297881 -0.03462451 -0.1288048
-0.124685034 0.028376376 0.053313673 0.13177441 0.18346757 -0.06826192 0.08894083 0.054224752
0.2930813 0.04032337 0.03365717 -0.1623602 -0.07162323 0.47490507 -0.14183784 -0.051667158
0.033909336 0.19281355 0.1815343 -0.038320098 0.18132046 0.087161824 0.113478154 -0.13573466
-0.27917543 0.064337745 -0.016598407 0.11963163 -0.007921906 -0.14223777 -0.16346239 0.25587538
0.11680193 0.04865518 0.044006765 -0.123258516 0.23777065 -0.36240506 0.18492907 0.23967539
-0.23580226 0.11855863 0.3585858 0.107270546 0.25157905 0.056797933 0.07556789 0.17598087
0.4143191 -0.2676547 0.3064669 0.12206535 0.100896224 -0.039909203 0.28452295 0.026734727
-0.29728714 0.19941562 0.08080972 -0.10455356 0.061774347 -0.11462937 0.09093041 0.13692641
-0.19038641 0.06378493 -0.045075122 -0.4368801 -0.1990885 -0.24140076 0.31681097 0.23414215
0.03999893 0.22990492 0.007820783 -0.20090668 -0.2765252 0.09409306 -0.0573296 -0.10692571
-0.32279092 -0.06504279 -0.09677924 0.05723552 -0.30627927 -0.054771855 0.48128912 0.2440995
0.087978825 -0.13964885 0.7525103 -0.20269743 -0.03961549 -0.13842955 0.17588592 0.07944861
-0.08483994 0.13332935 -0.042608768 -0.19523104 -0.076783285 0.060587592 0.22700474 -0.08585069
-0.18965934 -0.20771465 0.023890289 -0.018483145 -0.24434093 0.022349443 0.42493108 0.094254754
0.036577024 -0.14417855 -0.13926935 -0.30086425 -0.12843941 -0.06781067 0.13339669 0.11315615
-0.3083082 -0.114741944 0.1813481 0.021011809 -0.10008858 -0.059657212 0.11018707 -0.12353061
-0.27101603 -0.07328414 -0.02153326 0.028910019 0.24804963 0.13617058 0.122398 0.1540855
0.19927849 -0.024155423 -0.10780139 0.6977388 -0.09165615 -0.04275974 -0.058293607 0.07929933
0.11611855 -0.0741139 -0.0912812 -0.18112093 0.03676056 0.049565632 -0.31437773 -0.25902718
0.045035116 -0.071132235 -0.19228086 -0.26967585 -0.050087273 -0.23637043 -0.03999005 -0.08147216
0.09909659 0.037498977 0.5925705 -0.5699758 -0.031006252 -0.06966986 -0.03791901 -0.0274566
0.13514094 -0.13529222 -0.11455733 0.16416895 -0.49679506 -0.103047185 0.1508317 -0.2841914
-0.09209049 0.16136646 0.20630813 -0.11426105 0.11948654 0.07503731 0.04497212 -0.010200167
0.042743932 0.017874453 0.037916187 -0.028252734 0.048429158 -0.21674502 -0.008995298 0.0066801016
0.04233561 -0.0005441283 -0.1883701 -0.0052335383 -0.078884065 0.15339585 0.07094379 0.1176704
00000000: aedf 6cbe d9a4 5c3e ebcb 16be c583 393d
00000010: 1d26 de3d 1bd1 98bd 3e18 013e 57d7 8abd
00000020: 1514 383e fc60 523d 58c6 5b3d c682 1ebd
00000030: cdde 9abd 3aa2 253d c3d7 5a3d abce 633e
00000040: f8c9 f9bd bfab 803e 49f8 2c3d 992f 873d
00000050: 0400 a53d f8fc 253e 6fc3 7ebe bb06 ed3b
00000060: a3b1 273e f202 783e b869 ce3c d87c c53d
00000070: cfae 093a e4f1 6ebd 390b 8fbe d895 cf3c
00000080: 48c9 973d 5b1f cc3d 2353 6b3d d53f 163d
00000090: ae47 803d babb 83bd 240f 3bbe 8586 653d
000000a0: c447 20bd 7eb1 24bd 4d61 c93c 46c4 40bd
000000b0: 041e d43d b926 14bc a809 0a3e 7307 793c
000000c0: 8a67 283d 033b debd 44d3 ff3d eba0 8abc
000000d0: 2797 be3d ea75 953d 6ed2 0dbd 68e5 03be
000000e0: de5a ffbd 9375 e83c 705f 5a3d dfef 063e
000000f0: ecde 3b3e e8cc 8bbd 9c26 b63d c61a 5e3d
00000100: c10e 963e 1e2a 253d 1adc 093d c141 26be
00000110: 33af 92bd c226 f33e f03d 11be f1a0 53bd
00000120: 84e4 0a3d ea70 453e 21e4 393e 89f5 1cbd
00000130: 12ac 393e e681 b23d 3c67 e83d 07fe 0abe
00000140: 15f0 8ebe 82c3 833d 62f9 87bc 6e01 f53d
00000150: e2ca 01bc c7a6 11be af62 27be 1902 833e
00000160: da35 ef3d a74a 473d 7040 343d f66e fcbd
00000170: 267a 733e 288d b9be 0c5e 3d3e 776d 753e
00000180: 2676 71be dece f23d 8f98 b73e a9b0 db3d
00000190: f8ce 803e f3a4 683d 57c3 9a3d 5434 343e
000001a0: a221 d43e 090a 89be 3be9 9c3e 66fd f93d
000001b0: aea2 ce3d d577 23bd feac 913e c902 db3c
000001c0: 0536 98be 9c33 4c3e 917f a53d 2d20 d6bd
000001d0: 1907 7d3d cec2 eabd b939 ba3d 7036 0c3e
000001e0: a8f4 42be aca1 823d b1a0 38bd c0ae dfbe
000001f0: dbdd 4bbe c331 77be 0c35 a23e f6c2 6f3e
00000200: ebd5 233d 326c 6b3e be22 003c 7bba 4dbe
00000210: b694 8dbe ddb3 c03d 71d2 6abd defb dabd
00000220: da44 a5be 2735 85bd 3234 c6bd cb6f 6a3d
00000230: a3d0 9cbe 7458 60bd 876b f63e 38f5 793e
00000240: 3e2e b43d 1c00 0fbe 84a4 403f ea8f 4fbe
00000250: da43 22bd 7ac0 0dbe 701b 343e f4b5 a23d
00000260: 90c0 adbd 7d87 083e 8886 2ebd a5ea 47be
00000270: 8e40 9dbd b22a 783d ee73 683e 7dd2 afbd
00000280: 0f36 42be 26b3 54be 91b5 c33c f769 97bc
00000290: 8234 7abe 2e16 b73c 9190 d93e a308 c13d
000002a0: cad1 153d 8ba3 13be a09c 0ebe e10a 9abe
000002b0: 9f85 03be 52e0 8abd 2499 083e 69be e73d
000002c0: 93da 9dbe d3fd eabd 51b3 393e f520 ac3c
000002d0: 3efb ccbd 1f5b 74bd c2a9 e13d 9efd fcbd
000002e0: 9dc2 8abe ff15 96bd 8566 b0bc b4d4 ec3c
000002f0: b900 7e3e 4d70 0b3e cdab fa3d 97c8 1d3e
00000300: a90f 4c3e 98e1 c5bc fac6 dcbd 039f 323f
00000310: 38b6 bbbd d624 2fbd 47c5 6ebd b067 a23d
00000320: 90cf ed3d 07c9 97bd a3f1 babd c477 39be
00000330: 3e92 163d 5505 4b3d 1ef6 a0be 369f 84be
00000340: be76 383d c7ad 91bd 46e5 44be f412 8abe
00000350: 5028 4dbd 170b 72be 9bcc 23bd e0da a6bd
00000360: 27f3 ca3d 8798 193d b3b2 173f efe9 11bf
00000370: d300 febc 12af 8ebd f750 1bbd aaec e0bc
00000380: 6362 0a3e 0b8a 0abe 099d eabd e81b 283e
00000390: ec5b febe 670a d3bd a073 1a3e 8981 91be
000003a0: f099 bcbd 403d 253e 7042 533e b301 eabd
000003b0: 5cb5 f43d 29ad 993d b034 383d 9a1e 27bc
000003c0: 4314 2f3d 726d 923c 014e 1b3d 4772 e7bc
000003d0: a75d 463d 68f2 5dbe 0461 13bc c1e4 da3b
000003e0: 1b68 2d3d d5a3 0eba 17e4 40be 1a7e abbb
000003f0: f88d a1bd cd13 1d3e fa4a 913d 2efd f03d

377 f4 [64]
0.3511691 -0.98775285 -1.379422 0.47674614 -0.2688883 -0.26087242 -0.3719308 -0.5827694
-0.5537818 -0.30765736 -0.8412896 -0.43578327 0.011541046 -1.0632184 -0.86777186 0.5718013
0.6900425 0.12334663 -0.7752727 1.0461997 -0.9448043 -1.0757462 -0.4294908 0.9663378
0.36667943 0.5063317 0.75653374 -2.4877903 -0.108940326 -0.2097426 0.2981875 0.37309402
-0.72372234 -0.2959631 0.7685653 -0.33795178 -0.5619415 -0.12821093 -0.26994556 0.8143848
1.4068081 -0.18967107 0.7029484 -0.90172005 1.6419249 2.257188 -0.83139986 -1.4834422
1.7817041 1.4264705 -0.11407673 0.4148475 0.6062855 -1.1455321 -0.039130807 0.478652
0.81399024 0.53617305 -0.6468978 -0.083115086 -0.70557815 -0.5833826 -0.5707907 -1.2668915
00000000: 70cc b33e 5fdd 7cbf e690 b0bf 1218 f43e
00000010: baab 89be 1291 85be b76d bebe 6030 15bf
00000020: a5c4 0dbf 4485 9dbe c15e 57bf fc1e dfbe
00000030: a816 3d3c 8a17 88bf 4c26 5ebf 9261 123f
00000040: a0a6 303f 289d fc3d 4678 46bf dfe9 853f
00000050: b2de 71bf 0db2 89bf 38e6 dbbe ea61 773f
00000060: 68bd bb3e f49e 013f 32ac 413f f537 1fc0
00000070: 1b1c dfbd c4c6 56be 08ac 983e 2e06 bf3e
00000080: de45 39bf 7a88 97be b2c0 443f 0408 adbe
00000090: 66db 0fbf ba49 03be 4e36 8abe 867b 503f
000000a0: 4a12 b43f 2239 42be 6df4 333f 20d7 66bf
000000b0: 982a d23f c575 1040 9fd6 54bf 6fe1 bdbf
000000c0: e10e e43f 9696 b63f 10a1 e9bd e466 d43e
000000d0: 8735 1b3f cca0 92bf a047 20bd e011 f53e
000000e0: aa61 503f a342 093f 189b 25bf 3e38 aabd
000000f0: c5a0 34bf 9058 15bf 571f 12bf 8029 a2bf

379 f4 [64, 64, 1, 1]
0.09135472 0.05115511 -0.029434053 -0.1668854 -0.11593758 0.03501168 0.0022332135 0.012619542
0.058685213 0.0034392031 -0.1112947 -0.0414293 -0.0054462547 -0.013085835 -0.00355357 -0.057661384
-0.061814632 0.073870234 0.10701154 -0.110224165 -0.09252449 0.04612327 -0.16333242 -0.093052156
0.04433326 0.06781456 -0.14054567 -0.05817627 -0.0070949295 -0.045086578 -0.10410332 -0.10857155
-0.09484251 -0.049305353 0.004409229 -0.06025928 0.09578201 -0.116366535 0.045511387 0.003298404
-0.023164088 0.17672223 0.104983106 0.06202218 -0.011983302 -0.12652393 -0.020585826 0.012775824
-0.04139636 0.12025945 -0.019993955 -0.00626148 0.048186623 0.061152242 0.019945536 -0.0033330088
-0.1647451 -0.00032551147 0.042107556 -0.00484921 0.04912412 -0.109355815 0.1101161 0.03442978
-0.41473255 -0.06179523 -0.09778355 -0.36819282 -0.26987767 -0.1314231 0.08611459 -0.78786284
-0.59454775 -0.5514542 0.081666544 0.044219032 -0.18645868 -0.17550775 -0.09249777 -0.13470924
-0.27519953 0.099136144 -0.31009513 -0.1379714 -0.3439173 0.15713996 -0.20796455 0.12718351
-0.4320732 0.23275466 0.025668286 -0.47876427 0.13046086 0.07642956 -0.4372347 0.30514827
0.34578222 -0.36374897 -0.11462891 0.50242615 0.153761 -0.40252188 0.059833962 -0.1679947
0.15984842 -0.5578139 0.17823343 -0.042159185 -0.06588361 -0.82548743 0.48900324 -0.06954701
-0.79439485 0.1395087 0.78022146 -0.24065492 -0.21248867 -0.71581036 0.5052345 -0.36120334
0.6332021 0.5926184 -0.45789704 0.04813723 0.032092903 0.49176845 -0.12587267 -0.22205818
0.04342939 0.03712724 0.13787037 -0.27416927 0.4047723 0.41101658 -0.458197 -0.1229805
0.014132289 0.14472824 -0.19834767 0.25057936 -0.13793094 -0.03191808 -0.26201 0.14183122
0.20674983 -0.21633124 -0.045229964 -0.18500103 0.017670056 -0.06954848 0.18667415 -0.071166776
0.19013502 0.1950425 -0.08510532 -0.14376122 0.045925718 -0.17883036 -0.18292226 -0.13816772
-0.17819229 0.7127966 0.0918467 0.23740742 0.38124695 -0.14763966 -0.3813941 -0.195022
0.029221106 -0.14586356 0.17859718 -0.22164206 0.63142073 -0.15447512 -0.17564075 0.10279643
0.039628293 -0.18792552 -0.054613255 -0.1577252 0.07917173 0.05048261 -0.2940885 0.3979735
-0.18285564 -0.053721186 -0.37579075 -0.26698655 0.13693868 -0.0903784 0.32832456 0.01008377
-0.07938265 0.18083756 0.12530419 -0.07150249 -0.08172868 -0.029160293 0.016610999 -0.1505472
-0.036222205 -0.049419124 0.014181695 0.08101058 0.020166615 -0.12506121 -0.27646714 0.2545333
0.13794878 0.10028435 -0.03617483 0.06211824 -0.030188115 0.05386532 0.0043018837 -0.047119852
-0.5260704 0.11438091 0.19366086 -0.14765008 -0.08536421 -0.013257653 0.07387207 0.12095146
0.059427634 0.01233188 -0.10697838 0.09931876 0.17989574 -0.023686895 -0.040395033 -0.14681995
-0.26018158 -0.16618793 0.672072 -0.23875642 -0.08898688 0.06384363 0.0065678763 0.04349861
0.049047347 -0.028493533 -0.12456848 -0.09724017 -0.050051793 -0.01094543 0.017554725 0.016512318
-0.019991238 -0.3362497 0.028731534 0.12447337 -0.18336016 -0.042954106 -0.16056883 -0.1483311
00000000: 2f18 bb3d 0588 513d af1f f1bc 02e4 2abe
00000010: af70 edbd 6868 0f3d 1b5b 123b 32c2 4e3c
00000020: e85f 703d 4164 613b 7aee e3bd c5b1 29bd
00000030: 7f76 b2bb f865 56bc 03e3 68bb 582e 6cbd
00000040: 5731 7dbd 4749 973d de28 db3d 35bd e1bd
00000050: 7b7d bdbd c1eb 3c3d 9d40 27be 2192 bebd
00000060: cb96 353d 5ce2 8a3d 34eb 0fbe 3e4a 6ebd
00000070: 957c e8bb b4ac 38bd 1f34 d5bd c35a debd
00000080: ca3c c2bd 69f4 49bd 4b7b 903b 6fd2 76bd
00000090: 5c29 c43d 9451 eebd 266a 3a3d 092a 583b
000000a0: 9dc2 bdbc acf6 343e 6201 d73d f80a 7e3d
000000b0: 9d55 44bc 7d8f 01be 9ba3 a8bc b151 513c
000000c0: 3b8f 29bd 964a f63d 5dca a3bc 1a2d cdbb
000000d0: 565f 453d c67a 7a3d d264 a33c 9c6e 5abb
000000e0: f1b2 28be 69a9 aab9 f978 2c3d 1fe6 9ebb
000000f0: 6036 493d f1f5 dfbd 8d84 e13d 3e06 0d3d
00000100: d357 d4be ff1c 7dbd be42 c8bd c583 bcbe
00000110: 682d 8abe c793 06be d95c b03d 61b1 49bf
00000120: 4834 18bf 1a2c 0dbf ca40 a73d 041f 353d
00000130: 06ef 3ebe 4eb8 33be 796f bdbd 38f1 09be
00000140: f4e6 8cbe e407 cb3d cac4 9ebe 6048 0dbe
00000150: ee15 b0be 4ce9 203e a9f4 54be 653c 023e
00000160: b338 ddbe 3d57 6e3e 4c46 d23c 9720 f5be
00000170: 8897 053e 1a87 9c3d 3add dfbe 653c 9c3e
00000180: 5e0a b13e 4e3d babe 90c2 eabd 009f 003f
00000190: 8673 1d3e 5917 cebe 7514 753d cd06 2cbe
000001a0: 4eaf 233e e4cc 0ebf d382 363e 1caf 2cbd
000001b0: fced 86bd 2553 53bf a25e fa3e aa6e 8ebd
000001c0: 765d 4bbf 5edb 0e3e 98bc 473f 3e6e 76be
000001d0: a196 59be 593f 37bf 0c57 013f a5ef b8be
000001e0: 8819 223f d7b5 173f 7b71 eabe 8b2b 453d
000001f0: d973 033d 13c9 fb3e c4e4 00be 3863 63be
00000200: 04e3 313d bc12 183d e42d 0d3e ea5f 8cbe
00000210: 513e cf3e c470 d23e cc98 eabe 33dd fbbd
00000220: 1e8b 673c a433 143e a71b 4bbe f04b 803e
00000230: c53d 0dbe 88bc 02bd 2d26 86be 343c 113e
00000240: 3ab6 533e f085 5dbe 0e43 39bd e970 3dbe
00000250: cbc0 903c 6f6f 8ebd 8227 3f3e e3bf 91bd
00000260: c1b2 423e 39b9 473e b34b aebd 2436 13be
00000270: 9b1c 3c3d 4e1f 37be f94f 3bbe d77b 0dbe
00000280: 0a78 36be d779 363f 1f1a bc3d ee1a 733e
00000290: cd32 c33e da2e 17be 1646 c3be d9b3 47be
000002a0: 1a61 ef3c 425d 15be 2ee2 363e 23f6 62be
000002b0: caa4 213f ba2e 1ebe 2bdb 33be ef86 d23d
000002c0: 4751 223d 8c6f 40be 26b2 5fbd b782 21be
000002d0: ca24 a23d dac6 4e3d c592 96be 2fc3 cb3e
000002e0: 823e 3bbe bf0a 5cbd a567 c0be 76b2 88be
000002f0: a739 0c3e 5018 b9bd 281a a83e 6636 253c
00000300: 5f93 a2bd 7b2d 393e be4f 003e e66f 92bd
00000310: 5e61 a7bd 91e1 eebc ca13 883c 0c29 1abe
00000320: bc5d 14bd b56b 4abd 575a 683c e0e8 a53d
00000330: 7534 a53c 0c10 00be 1a8d 8dbe 3052 823e
00000340: 7242 0d3e e261 cd3d 0f2c 14bd b26f 7e3d
00000350: 114d f7bc e2a1 5c3d d1f6 8c3b bf00 41bd
00000360: 8dac 06bf 8a40 ea3d 084f 463e 9531 17be
00000370: 6ed3 aebd a136 59bc 3d4a 973d 66b5 f73d
00000380: 646a 733d a70b 4a3c 7b17 dbbd a267 cb3d
00000390: 9736 383e 050b c2bc 4375 25bd f857 16be
000003a0: 8536 85be 2b2d 2abe e90c 2c3f 907c 74be
000003b0: c13e b6bd 73c0 823d 5737 d73b 992b 323d
000003c0: dfe5 483d 456b e9bc c21d ffbd db25 c7bd
000003d0: 1c03 4dbd 7654 33bc edce 8f3c d744 873c
000003e0: aac4 a3bc ec28 acbe 655e eb3c e5eb fe3d
000003f0: c4c2 3bbe a5f0 2fbd 286c 24be 1ce4 17be

380 f4 [64]
0.4757843 2.5625937 -1.0009568 0.39582202 0.45321253 -0.8538779 -0.51171714 0.40395004
0.36755538 0.7953725 -0.38898984 -1.2327641 0.7078645 0.68727815 -0.09919512 0.05877906
0.43857113 -0.1276989 -0.4518062 0.21099985 -0.5583829 0.3417075 -0.5062284 0.0964382
-0.07222816 -0.15270714 -0.35294193 0.450351 0.5536849 -0.8254534 1.720535 0.1815401
-0.16619845 0.90276444 -0.75891024 0.59386873 -0.26532835 1.1043497 0.5067133 1.6971285
-0.2507239 -1.4061329 0.08053762 0.16738369 0.8064823 0.2706483 0.64240867 0.16860437
1.2740647 1.4858185 1.609501 -1.0907223 0.7166777 0.619348 0.012642145 0.3856548
0.5026239 0.9029392 0.2658459 -0.30356026 -0.16368148 0.86408305 0.3862242 0.18670702
00000000: 009a f33e 8901 2440 5a1f 80bf 2fa9 ca3e
00000010: 790b e83e be97 5abf e5ff 02bf 8ad2 ce3e
00000020: 3830 bc3e 889d 4b3f ad29 c7be 37cb 9dbf
00000030: 9c36 353f 76f1 2f3f d026 cbbd 50c2 703d
00000040: 658c e03e 80c3 02be 2453 e7be 5810 583e
00000050: 2ff2 0ebf 49f4 ae3e 2f98 01bf 6481 c53d
00000060: 5cec 93bd 435f 1cbe ceb4 b4be 6894 e63e
00000070: 4bbe 0d3f ea50 53bf 7e3a dc3f a6e5 393e
00000080: ed2f 2abe 921b 673f f147 42bf c807 183f
00000090: 1ed9 87be 555b 8d3f f6b7 013f 823b d93f
000000a0: e25e 80be 2afc b3bf e8f0 a43d a166 2b3e
000000b0: a075 4e3f 6a92 8a3e e574 243f a0a6 2c3e
000000c0: 8d14 a33f 4d2f be3f 2104 ce3f ca9c 8bbf
000000d0: 3178 373f 978d 1e3f 0021 4f3c 8c74 c53e
000000e0: f6ab 003f 0627 673f f41c 883e 406c 9bbe
000000f0: 1e9c 27be 8c34 5d3f 2ebf c53e 2030 3f3e

382 f4 [64, 20, 1]
-0.37523693 -0.35000253 0.03898787 -0.1419166 -0.027091827 -0.01473648 0.016644623 -0.10473642
0.046285022 -0.0068028024 -0.026644547 0.012497545 -0.01473186 -0.005156231 -0.043828648 -0.20091693
-0.08936389 0.14987995 0.11524369 -0.039292324 -0.008376382 -0.005431689 -0.0053097103 -0.012109038
0.001160972 -0.0015299389 -0.009209389 -0.0016992051 -0.014697926 0.012881941 -0.0009743666 8.384987e-05
-0.0026864235 0.00517522 -0.0023438227 0.0128974095 0.0076567754 0.0068226396 -0.0073910696 -0.0073035406
0.27473947 0.33748043 -0.19813174 -0.56145614 -0.2535113 -0.0070851073 0.0443296 0.21692036
0.21939142 -0.13467567 -0.012074003 0.028093036 -0.026971811 0.011226265 -0.3168631 0.04723336
-0.146646 0.09094507 0.24445592 -0.09643793 0.12031986 -0.051853277 0.13271111 -0.10828611
-0.33424294 0.027427493 0.05960489 -0.0060911905 -0.046458766 -0.0018012782 -0.0097083915 0.34121212
0.036553595 -0.026571708 -0.0096702315 -0.05639251 0.016535187 0.032131046 -0.016359234 0.08100733
-0.030841537 0.111655585 -0.59506327 0.93893176 0.084934846 -0.060989995 -0.0963272 -0.09500075
-0.016454162 -0.089400016 0.021106454 -0.014181268 -0.06617761 0.016616762 0.17275919 -0.26469615
-0.14678386 -0.07161903 -0.15050036 0.22671257 -0.016677665 0.11298047 -0.39429706 0.27353698
-0.0071472744 -0.017182969 0.10483605 0.062494583 0.05942845 -0.055670764 0.009361 -0.010911083
0.06494188 -0.056197714 0.019435735 -0.011010855 -0.08482663 -0.88875943 0.15801622 0.1737224
-0.18247628 -0.0490735 -0.21730307 0.031901993 0.04560786 -0.0046517756 0.168079 0.013981805
-0.17184256 -0.052642718 -0.005859095 0.0013400748 0.15375562 0.03581567 0.21436872 -0.17319098
-0.049794283 0.045740407 -0.03802825 -0.023437612 0.5513502 0.17000149 -0.07865203 -0.2684041
-0.10746794 0.01347801 -0.013603515 -0.027566519 -0.03633451 0.12965521 -0.0044727586 0.012826096
-0.0015845614 0.039729547 0.11209074 -0.13663787 0.08361048 -0.04749946 0.036749877 0.04613348
-0.27301905 -0.4569905 0.013108608 0.15619554 -0.22814806 0.045981143 -0.5389101 -0.009212724
-0.07501412 0.047266793 -0.0013228774 0.05923989 0.020873075 -0.030127645 -0.1625708 0.29840297
0.04418807 0.024850246 -0.06859742 -0.13349465 0.049711008 0.09894675 0.45798907 0.00416149
-0.05428714 -0.01094617 0.23013242 0.0838039 0.020622266 -0.022335572 0.0104610175 0.012290479
-0.01806234 0.019988762 -0.0056215418 -0.36919314 -0.20346653 0.46146134 0.27040246 0.47336474
-0.116294876 -0.012735324 -0.14924794 0.073765166 0.052818757 0.0061328327 0.028728157 0.14326835
0.017863175 0.08503605 0.0053828466 0.004576306 0.0017797152 0.005918033 -0.07978581 0.42112562
0.04101126 -0.009555947 0.025382917 0.3901976 -0.21382639 -0.028088214 0.69251704 0.0044587045
0.27271184 -0.03152252 -0.23575152 -0.36004704 -0.034194212 0.109289445 -0.062927485 0.06474757
0.0046924693 -0.006234774 0.3678627 -0.33311212 0.0027092127 0.05073146 -0.02078246 -0.11159553
-0.1204136 0.11082733 -0.313061 -0.0009780473 0.0670149 0.013222597 0.06357189 0.06684615
-0.05006557 -0.03880443 -0.0012684232 -0.010993912 0.029870845 -0.016886737 -0.17433168 0.37999287
00000000: 0e1f c0be 8833 b3be bfb1 1f3d 9652 11be
00000010: aeef ddbc 4771 71bc 4e5a 883c 0c80 d6bd
00000020: 5d95 3d3d 0bea debb aa45 dabc 81c2 4c3c
00000030: e65d 71bc 9af5 a8bb ab85 33bd 2bbd 4dbe
00000040: 6a04 b7bd 217a 193e e204 ec3d fdf0 20bd
00000050: 183d 09bc 4ffc b1bb 14fd adbb fd64 46bc
00000060: c22b 983a 3b88 c8ba fae2 16bc ddb7 deba
00000070: 92cf 70bc c70e 533c a36c 7fba 8ed8 af38
00000080: b50e 30bb e494 a93b d29a 19bb a84f 533c
00000090: b0e5 fa3b 7390 df3b c930 f2bb 8a52 efbb
000000a0: a7aa 8c3e 3cca ac3e 0ce3 4abe 97bb 0fbf
000000b0: 3ccc 81be 302a e8bb f492 353d 5f20 5e3e
000000c0: 25a8 603e 6be8 09be 0ad2 45bc 5e23 e63c
000000d0: fdf3 dcbc 5eee 373c e13b a2be c577 413d
000000e0: 5e2a 16be 6941 ba3d a752 7a3e 4081 c5bd
000000f0: 426a f63d 1a64 54bd 6ce5 073e 1cc5 ddbd
00000100: e421 abbe 9faf e03c 4224 743d 9c98 c7bb
00000110: 8c4b 3ebd de18 ecba f20f 1fbc 5bb3 ae3e
00000120: 39b9 153d e9ac d9bc e46f 1ebc d5fb 66bd
00000130: cd74 873c d89b 033d cd03 86bc 2ce7 a53d
00000140: 64a7 fcbc afab e43d 1156 18bf d55d 703f
00000150: 52f2 ad3d a5d0 79bd 3247 c5bd c18f c2bd
00000160: e1ca 86bc 5b17 b7bd 71e7 ac3c 8d58 68bc
00000170: 2088 87bd e01f 883c c9e7 303e 4186 87be
00000180: 824e 16be ffac 92bd c41c 1abe 5727 683e
00000190: 999f 88bc 4e62 e73d 4ee1 c9be 0a0d 8c3e
000001a0: af33 eabb 4cc3 8cbc 48b4 d63d 52fa 7f3d
000001b0: 3f6b 733d 0707 64bd e15e 193c 66c4 32bc
000001c0: 4000 853d 932f 66bd b137 9f3c e066 34bc
000001d0: 96b9 adbd bd85 63bf 01cf 213e 49e4 313e
000001e0: 10db 3abe 4b01 49bd b284 5ebe aaab 023d
000001f0: 4fcf 3a3d ec6d 98bb e71c 2c3e f113 653c
00000200: 7ff7 2fbe e49f 57bd a7fd bfbb 73a5 af3a
00000210: 1d72 1d3e 74b3 123d 7983 5b3e fa58 31be
00000220: 17f5 4bbd 4b5a 3b3d 83c3 1bbd 3c00 c0bc
00000230: 4925 0d3f df14 2e3e 5114 a1bd 436c 89be
00000240: 2718 dcbd dfd2 5c3c 47e1 5ebc 2ed3 e1bc
00000250: 7fd3 14bd 56c4 043e 3890 92bb 8c24 523c
00000260: 0fb1 cfba 73bb 223d d48f e53d ccea 0bbe
00000270: f93b ab3d cb8e 42bd 0a87 163d 76f6 3c3d
00000280: 27c9 8bbe a9fa e9be 7dc5 563c b9f1 1f3e
00000290: a59f 69be b956 3c3d 03f6 09bf f7f0 16bc
000002a0: 01a1 99bd d39a 413d 6664 adba 87a5 723d
000002b0: 03fe aa3c 40ce f6bc f678 26be 46c8 983e
000002c0: 8dfe 343d be92 cb3c ce7c 8cbd d2b2 08be
000002d0: c59d 4b3d 98a4 ca3d 8b7d ea3e 1c5d 883b
000002e0: 315c 5ebd 9157 33bc d5a7 6b3e 61a1 ab3d
000002f0: 07f0 a83c 17f9 b6bc b064 2b3c 015e 493c
00000300: 79f7 93bc 79bf a33c e934 b8bb e206 bdbe
00000310: 8859 50be a944 ec3e 3172 8a3e dd5c f23e
00000320: 022c eebd d2a7 50bc 74d4 18be 3112 973d
00000330: 7b58 583d eef5 c83b 5057 eb3c f0b4 123e
00000340: cb55 923c 6127 ae3d 9762 b03b d6f4 953b
00000350: 5545 e93a 0fec c13b be66 a3bd c79d d73e
00000360: 6cfb 273d 8c90 1cbc d6ef cf3c fbc7 c73e
00000370: 4ef5 5abe 4119 e6bc cc48 313f 531a 923b
00000380: e3a0 8b3e c21d 01bd d968 71be 1658 b8be
00000390: 3b0f 0cbd 25d3 df3d 20e0 80bd 609a 843d
000003a0: 49c3 993b 134d ccbb 8058 bc3e ac8d aabe
000003b0: 0c8d 313b cbcb 4f3d fa3f aabc 328c e4bd
000003c0: 689b f6bd 70f9 e23d 8849 a0be d231 80ba
000003d0: 1c3f 893d 97a3 583c fb31 823d a2e6 883d
000003e0: 8e11 4dbd 65f1 1ebd 3841 a6ba cf1f 34bc
000003f0: b4b3 f43c 0e56 8abc 0184 32be 6d8e c23e

383 f4 [64]
-0.8772172 -0.009867103 -0.4846068 0.12237796 -0.04321736 -0.062055767 -0.23594756 0.056965023
-0.51277703 0.08991344 0.5064205 -0.3818131 0.050584584 0.3449638 -0.070551455 -0.028544843
-0.0918968 0.9050413 -0.41306436 0.54652464 0.4057806 0.17721856 0.11707338 0.36249503
0.2161761 -0.64542615 0.09424907 1.2879113 -0.010615125 0.08234511 0.041601248 -0.3452656
-0.08714187 -0.723247 -0.6674819 -0.5725049 1.060188 0.07983405 -0.6370088 -0.2288716
0.01820293 -0.9176849 -0.09017992 -0.40270028 0.15325475 0.9530531 -0.0015789121 0.028939895
0.025638998 -0.18597952 0.21929215 -0.13350427 -0.22595203 -0.4380356 0.26570433 -0.04632896
-0.38716036 0.07668531 -0.21853994 -0.2147408 0.028310932 -0.11815715 -0.4368592 -0.06692982
00000000: 4e91 60bf a1a9 21bc 621e f8be 4ca1 fa3d
00000010: b004 31bd 302e 7ebd 3d9c 71be 2854 693d
00000020: 5b45 03bf 8a24 b83d c6a4 013f 027d c3be
00000030: c831 4f3d 189f b03e 487d 90bd e0d6 e9bc
00000040: 6434 bcbd c9b0 673f 2c7d d3be 0ae9 0b3f
00000050: 7ac2 cf3e c878 353e 2bc4 ef3d f398 b93e
00000060: 445d 5d3e a63a 25bf a805 c13d 47da a43f
00000070: 10eb 2dbc 8ea4 a83d 1266 2a3d a7c6 b0be
00000080: 7077 b2bd b726 39bf 18e0 2abf ae8f 12bf
00000090: 3eb4 873f 0980 a33d 0213 23bf 515d 6abe
000000a0: 501e 953c 66ed 6abf 40b0 b8bd bb2e cebe
000000b0: d0ee 1c3e 4afb 733f 80f3 ceba 5c13 ed3c
000000c0: e008 d23c 6a71 3ebe 1f8e 603e 58b5 08be
000000d0: f85f 67be 3446 e0be 660a 883e 70c3 3dbd
000000e0: e239 c6be 300d 9d3d efc8 5fbe 03e5 5bbe
000000f0: 54ec e73c 60fc f1bd 02ac dfbe 8012 89bd
