MicroAOD/data/ParticleNetSV/V02/model.onnx (onnx, 922317 bytes, 30 tensors)

fc.0.0.weight f4 [128, 256]
0	0xbd2b6de8	-0.04185286
1	0xbde68452	-0.11255707
2	0x3cfe6b92	0.031057153
3	0x3c731e8e	0.014838828
4	0xbd2c2006	-0.042022727
5	0xbc69c443	-0.014267984
6	0xbd239c20	-0.039943814
7	0xbd85a348	-0.06525284
8	0xbd603784	-0.054740444
9	0x3c8f8f3a	0.01752435
10	0xbc7dc9de	-0.015490023
11	0xbd89c4e2	-0.067270055
12	0xbc9a8b7f	-0.018865345
13	0xbdaddc7a	-0.08489318
14	0xbdae6ede	-0.0851724
15	0xbc051c0c	-0.008124363
16	0xbdea1472	-0.11429681
17	0xbda940f8	-0.08264345
18	0x3d328232	0.043581195
19	0x3a73f4f0	0.0009306213
20	0x3ca77738	0.02044259
21	0xbd0e4cf4	-0.034741357
22	0xbd33ccba	-0.043896414
23	0xbdbb9247	-0.091587596
24	0xbe25a823	-0.1617742
25	0x3e1d2ffc	0.15350336
26	0x3ce08bc8	0.027410403
27	0xbdde12ab	-0.108434044
28	0x3bac41de	0.0052568754
29	0xbd6947b6	-0.056953155
30	0x3c0cf20c	0.00860263
31	0xbdc2b92e	-0.095079765
32	0xbe0a3e50	-0.13500333
33	0x3aae5840	0.0013301447
34	0xbca6cdea	-0.02036186
35	0xbdb732b2	-0.08945216
36	0xbd9ee2e8	-0.07758123
37	0xbd963592	-0.073344365
38	0xbc87eb52	-0.016591702
39	0xbd37af6c	-0.04484503
40	0xbd906b3c	-0.07051703
41	0xbd52065c	-0.051275596
42	0xbc81887a	-0.015812147
43	0x3cfb32ef	0.030663935
44	0x3c1a2fe0	0.009410828
45	0xbd25a006	-0.040435813
46	0xbe034970	-0.12820983
47	0xbd425ce1	-0.047451857
48	0xbda4b390	-0.08042061
49	0xbbb1205a	-0.005405468
50	0xbd24b0e0	-0.040207744
51	0x3d2a1e9d	0.0415331
52	0x3c5e5986	0.013571149
53	0xbdedea54	-0.1161696
54	0xbdda7cb4	-0.106683165
55	0xbd1637a0	-0.036674142
56	0xbdb6a19c	-0.08917543
57	0xbb8f24d6	-0.004368405
58	0xbb41fbb4	-0.002959949
59	0xbd05fc52	-0.032711335
60	0xbd097803	-0.033561718
61	0xbd1e91c0	-0.038713217
62	0x3ac28671	0.0014841092
63	0x3d7afa4e	0.061273865
64	0xbe077c5e	-0.13231036
65	0x3d1bb16a	0.038010992
66	0x3c34a5a0	0.011025816
67	0xbd8133d6	-0.06308715
68	0xbdbb1994	-0.09135738
69	0xbb94f3dc	-0.004545672
70	0x3bdb2bfa	0.006688592
71	0xbe26a501	-0.16273881
72	0xbd846a97	-0.06465643
73	0xbd9dcb5a	-0.07704802
74	0xbd844c96	-0.0645992
75	0xbd528e0d	-0.051405
76	0xbd9c8aa4	-0.07643631
77	0x3c947da4	0.018126316
78	0xbe07581d	-0.13217206
79	0xbd6b000a	-0.057373084
80	0xbd2628ca	-0.040566243
81	0xbda1a432	-0.07892646
82	0xb97fcb7c	-0.00024394499
83	0x3c061450	0.008183554
84	0xbdac0ea8	-0.08401233
85	0xbd993c32	-0.074821845
86	0x3d0f703e	0.035019152
87	0xbde31106	-0.11087231
88	0xbb1f69f8	-0.0024324637
89	0xbd27d5c6	-0.040975355
90	0xbdba80c2	-0.0910659
91	0x3d22fbc8	0.0397909
92	0x3d1b8344	0.03796698
93	0xbd88195e	-0.066454634
94	0xbe2c1e99	-0.16808547
95	0x3c59b4fa	0.013287777
96	0xbde1664c	-0.1100584
97	0x3d4e90ee	0.050431184
98	0xbceacc3d	-0.028661842
99	0xbd6c6690	-0.057715
100	0xbdfbe934	-0.12300339
101	0xbd729322	-0.059222348
102	0x3e15ed86	0.14641389
103	0x3c80d40a	0.015726108
104	0xbb1a9cb4	-0.0023591937
105	0xbdbc434a	-0.09192522
106	0x3d438fb5	0.04774447
107	0x3cfe5d69	0.0310504
108	0xbb1bdb12	-0.00237817
109	0x3d9d953a	0.07694478
110	0x3c06dc48	0.00823123
111	0xbc0487af	-0.00808899
112	0xbd2fcc1e	-0.04291927
113	0xbdb8185f	-0.089890234
114	0x3d379932	0.044823833
115	0xbceba451	-0.028764876
116	0xbcc0dcf4	-0.023542859
117	0xbd007bca	-0.031368054
118	0xbd968a08	-0.07350546
119	0x3dc78562	0.09742238
120	0xbd75f75e	-0.06005036
121	0x3dbdb930	0.09263837
122	0xbd673682	-0.056448467
123	0xbdd35b7c	-0.10320184
124	0xbd4ffaf8	-0.05077645
125	0xbb095636	-0.0020955927
126	0xbd325458	-0.043537468
127	0x3d4060e0	0.046967387
128	0xbd982534	-0.07428971
129	0xbce662ea	-0.028123338
130	0xbd89a394	-0.06720653
131	0xbd0ab862	-0.033867247
132	0xbd21c9f2	-0.03949923
133	0xbe3c1540	-0.18367481
134	0x3d6b8896	0.057503305
135	0xbd2a32aa	-0.041552223
136	0xbdbd5756	-0.09245174
137	0xbd4a4b00	-0.04938793
138	0xbd4dff10	-0.050292075
139	0xbd8496e2	-0.06474091
140	0x3cea823d	0.028626556
141	0xbdf52752	-0.119703904
142	0x3bed4428	0.007240791
143	0x3c2e8da6	0.010653889
144	0xbdd8140e	-0.105507
145	0x3d6b05c6	0.057378553
146	0xbd923942	-0.07139827
147	0x3d27205a	0.040802337
148	0xbc1aa0fa	-0.009437794
149	0xbd73ffd0	-0.059570134
150	0xbc86f520	-0.016474307
151	0xbdf8732b	-0.121313415
152	0xbe032a22	-0.12809041
153	0xbe03006e	-0.12793133
154	0xbdc0ce98	-0.09414405
155	0xbd42262a	-0.047399677
156	0xbdf3ab6e	-0.11897932
157	0x3cf29a54	0.029614605
158	0xbda36fd6	-0.079803154
159	0xbd80b3fa	-0.06284328
160	0xbd8c2e42	-0.068447605
161	0x3d3aa122	0.045563824
162	0xbd0275b2	-0.031850524
163	0xbc295921	-0.010336191
164	0xbc7386d6	-0.01486369
165	0xbd733e23	-0.05938543
166	0xbd5dbe98	-0.054136842
167	0x3cbf4036	0.023346048
168	0xbe0f28dc	-0.1398043
169	0xbd1c7f5c	-0.038207397
170	0xbdd68752	-0.10475029
171	0x3da695df	0.081340544
172	0xbb9bb9ad	-0.004752359
173	0xbdd7f508	-0.10544783
174	0x3b40cb80	0.002941817
175	0x3cea95a6	0.028635811
176	0xbd50d950	-0.050988495
177	0xbd0c4498	-0.034245104
178	0xbd58ffb0	-0.052978218
179	0xbd14cc27	-0.036327507
180	0x3d09231e	0.033480756
181	0xbd411d6a	-0.047147192
182	0xbdc69086	-0.096955344
183	0xbda1b21a	-0.07895298
184	0x3cf381a4	0.029724903
185	0x3b16bd6e	0.0023001092
186	0xbcebbcfb	-0.028776636
187	0x3d30737c	0.043078884
188	0xbc8f0434	-0.017458059
189	0xbd20d6c4	-0.039267316
190	0xbd23a89c	-0.03995572
191	0xbd8f1ee2	-0.06988312
192	0xbd9880a2	-0.0744641
193	0xbcaabb60	-0.0208413
194	0xbc8676ec	-0.016414128
195	0xbc4d9c88	-0.012549527
196	0xbd52030e	-0.051272444
197	0xbd80a4a5	-0.062814035
198	0xbc002c53	-0.007823068
199	0xbd9cdeb7	-0.07659667
200	0xba9744d1	-0.0011540895
201	0xbc1eb40b	-0.00968648
202	0xbc0dffe6	-0.008666968
203	0x3b6bdf6f	0.003599133
204	0x3d570c7d	0.052502144
205	0x3d23c56e	0.039983205
206	0xbd2a5af5	-0.04159065
207	0x3c89e5a0	0.016833127
208	0xbd477d7b	-0.048703652
209	0xbdb353c0	-0.087562084
210	0xbd46f6e8	-0.048575312
211	0xbd6b6219	-0.0574666
212	0xbdaf3c74	-0.085564524
213	0xbd26f2c8	-0.040758878
214	0x3c615cde	0.013755051
215	0xbda114b9	-0.07865281
216	0x39ec720a	0.00045098393
217	0xbd0b4d4a	-0.034009255
218	0x3d9d4972	0.07680024
219	0x3c5dd116	0.0135386195
220	0xbddbd659	-0.10734243
221	0xbce3a892	-0.027790342
222	0xbcc595d2	-0.024119291
223	0x3d07f546	0.033192895
224	0x3d57dcb8	0.05270073
225	0xbd90bdab	-0.07067426
226	0x3c1c2b65	0.00953183
227	0xbdbf69f7	-0.09346383
228	0xbd72ea60	-0.05930555
229	0xbe08eba0	-0.13371134
230	0xbd86f050	-0.06588805
231	0xbe437c0a	-0.19090286
232	0xbb7894dc	-0.0037930524
233	0xbd0f94f5	-0.035054166
234	0xbcca6e30	-0.024710745
235	0x3b477cc2	0.0030439352
236	0xbda19856	-0.07890384
237	0xbc1441b2	-0.009048866
238	0x3d3074ac	0.043080017
239	0xbd5f7982	-0.05455924
240	0x3d16f1e2	0.03685177
241	0xbd3cb002	-0.04606629
242	0xbd65c95e	-0.05610024
243	0x3d68749b	0.05675183
244	0x3c822298	0.015885636
245	0x3d2572f6	0.04039284
246	0xbcdba9f9	-0.026814448
247	0x3cc98f78	0.024604544
248	0x3ca44b14	0.020055331
249	0xbdb7a404	-0.089668304
250	0xbcac3ae6	-0.021024179
251	0xbc3d5384	-0.011555556
252	0xbc505b7a	-0.012717122
253	0xbe485ae6	-0.19565925
254	0xbdc0309c	-0.093842715
255	0xbdcf44a0	-0.10120511

fc.0.0.bias f4 [128]
0	0xbc9e229f	-0.019303618
1	0xbd9f96ea	-0.077924564
2	0xbd7b96a0	-0.061422944
3	0xbd2bc96f	-0.04194015
4	0xbcda3682	-0.02663732
5	0x3eaccd1e	0.33750242
6	0xbeba8795	-0.36431566
7	0xbd93e247	-0.07220893
8	0x3e6303c5	0.22169407
9	0xbd42dd92	-0.047574587
10	0x3cc8c1c5	0.024506459
11	0xbe37b236	-0.17939076
12	0x3bf676d1	0.0075214882
13	0x3ddf3d38	0.109003484
14	0x3f811c7d	1.0086819
15	0x3f33d6d0	0.7024965
16	0x3e2ddc61	0.16978599
17	0x3db58766	0.08863716
18	0x3ee287c9	0.4424422
19	0x3e77fa64	0.2421661
20	0x3e5aa8e0	0.21353483
21	0xbbb44a32	-0.005502009
22	0xbe08d4b7	-0.13362394
23	0x3db146b0	0.08656061
24	0xbc78057a	-0.015138024
25	0xbda21446	-0.07914023
26	0x3ef23038	0.47302413
27	0x3e35f251	0.17768218
28	0xbce421e0	-0.027848184
29	0x3de68fe3	0.11257913
30	0x3e680c3e	0.2266092
31	0x3dee4229	0.11633713
32	0x3ed6bb03	0.41939554
33	0x3e9aa560	0.30204296
34	0xbcf0bf16	-0.029387992
35	0xbd2689b2	-0.04065866
36	0x3d9ea32c	0.07745966
37	0x3e890cd1	0.2676759
38	0xbce6a3fa	-0.028154362
39	0x3eaae6e1	0.33379272
40	0xbd92762a	-0.07151444
41	0xbd2b3dc9	-0.04180697
42	0x3e6231c5	0.22089298
43	0x3eb62865	0.35577694
44	0xbdb8f6ff	-0.09031486
45	0xbd870c68	-0.06594163
46	0xbd83d558	-0.064371765
47	0xbd1813e3	-0.03712834
48	0xbe59a34f	-0.21253704
49	0xbd58483c	-0.052803263
50	0x3e5121dd	0.20423074
51	0x3f4c488f	0.79798216
52	0x3e3272e1	0.17426635
53	0xbd8cc3ef	-0.06873309
54	0xbd5dc0b2	-0.054138847
55	0xbd528a66	-0.05140152
56	0xbd67acaa	-0.05656115
57	0xbd8f406a	-0.06994708
58	0x3e4668e2	0.19375947
59	0xbd982b0e	-0.07430087
60	0xbddae2be	-0.10687779
61	0x3ab5880c	0.0013849749
62	0x3f04d1ae	0.51882446
63	0xbe26782a	-0.16256776
64	0x3e800de8	0.2501061
65	0x3e5a2d74	0.21306401
66	0x3bba9283	0.005693735
67	0xbc819c70	-0.015821666
68	0xbd98c64c	-0.07459697
69	0xbd5a8a86	-0.053354762
70	0x3cbdb0ff	0.023155687
71	0xbd5d4f2c	-0.054030582
72	0x3c841e48	0.01612772
73	0x3de562da	0.11200495
74	0xbc0eadb4	-0.008708406
75	0x3f28b9de	0.6590861
76	0x3e627b13	0.22117262
77	0x3e50ffb9	0.2041005
78	0xbd89509a	-0.06704827
79	0xbcc2aaa8	-0.023763016
80	0xbd8400bc	-0.064454526
81	0x3f0b5953	0.5443317
82	0x3f5341b5	0.82522136
83	0xbcee9da6	-0.029127907
84	0x3f073fb7	0.52831596
85	0xbd565b86	-0.052333377
86	0x3e953b24	0.29146683
87	0x3d22f93f	0.03978848
88	0x3e755c7a	0.23961058
89	0x3e63c320	0.22242403
90	0x3dbebb2d	0.09313045
91	0x3f1cf82b	0.61316174
92	0xbd29c327	-0.041445877
93	0x3c952c4b	0.018209597
94	0x3e82ec82	0.25571066
95	0x3e2dbc71	0.16966416
96	0x3f123218	0.57107687
97	0xbd807ecc	-0.062741846
98	0xbdbea712	-0.0930921
99	0x3e33e7bd	0.1756887
100	0xbd354011	-0.04425055
101	0xbcc6616a	-0.024216373
102	0x3e85b612	0.2611547
103	0xbd31eaf0	-0.043436944
104	0x3e97294b	0.29523692
105	0xbdc13792	-0.09434427
106	0x3e8d70bf	0.2762508
107	0x3f237908	0.63856554
108	0xbd747093	-0.05967767
109	0xbd126416	-0.03573998
110	0xbda1ce4c	-0.07900676
111	0x3e61bb2c	0.22044057
112	0x3e8fed58	0.28110766
113	0xbd62e560	-0.05539453
114	0xbd868696	-0.06568639
115	0xbe84f312	-0.25966698
116	0xbda50a08	-0.08058554
117	0xbd62f0b4	-0.055405334
118	0x3acee566	0.0015784919
119	0x3f8ec457	1.1153668
120	0xbd92bf88	-0.07165438
121	0xbcbb5266	-0.02286644
122	0x3e826964	0.25471032
123	0x3df85a4a	0.12126596
124	0x3e802d0d	0.2503437
125	0xbd746c06	-0.05967333
126	0xbde709f0	-0.11281192
127	0xbce55ff8	-0.027999863

fc.1.weight f4 [5, 128]
0	0xbde6d348	-0.112707675
1	0x3e665501	0.22493364
2	0xbd93ccf6	-0.072168276
3	0x3c8dbeb4	0.017302848
4	0xbd181e1e	-0.037138097
5	0x3e33cf4f	0.1755955
6	0x3dc9565a	0.098309234
7	0xbd5ea244	-0.054353967
8	0x3ba8fdb9	0.005157199
9	0xbd3fb31f	-0.046801683
10	0xbbe990e6	-0.007127869
11	0x3c89a38e	0.016801622
12	0x3e1d6c64	0.15373379
13	0x3e48e8ae	0.1962001
14	0xbfcfabaa	-1.6224263
15	0xbeae17e8	-0.34002614
16	0x3d8a40a8	0.067506135
17	0xbf06f0a9	-0.5271097
18	0xbeac31de	-0.33631796
19	0xbead6ab9	-0.33870485
20	0x3dac0b6f	0.08400618
21	0x3c141a30	0.009039447
22	0x3ddda627	0.10822707
23	0x3d917e38	0.071041524
24	0x3d02a5d8	0.031896442
25	0xbd3402b4	-0.04394789
26	0xbe8d7ab1	-0.2763267
27	0xbe0fd9fc	-0.14047998
28	0xbd4827b1	-0.048865978
29	0xbdce37d2	-0.10069241
30	0x3dcc7580	0.09983349
31	0x3e14242c	0.14466923
32	0xbed4d3b3	-0.41567764
33	0xbe81ac5b	-0.2532681
34	0xbd225168	-0.039628416
35	0x3c8c5db2	0.017134521
36	0xbe50607b	-0.20349304
37	0xbe929a8a	-0.2863353
38	0x3d2002d4	0.039065197
39	0x3e23bd67	0.1599022
40	0x3dc07c16	0.093986675
41	0x3d5a1cde	0.053250186
42	0xbe5e5f96	-0.2171615
43	0x3de83eae	0.1134008
44	0xb6e54be0	-6.833565e-06
45	0xbd86c52d	-0.06580577
46	0x3d6cdd3e	0.05782818
47	0xbdb94716	-0.09046762
48	0x3e411577	0.18855844
49	0xbc07736e	-0.008267267
50	0x3dbf73b1	0.09348238
51	0xbf3bbc36	-0.7333406
52	0x3db9c5ec	0.09070954
53	0xbd0a5cbe	-0.033779852
54	0xbd3bd2ec	-0.045855448
55	0xbd7a1c65	-0.061062235
56	0x39fa7b50	0.0004777559
57	0xbd4526fd	-0.048132885
58	0xbddd6026	-0.108093545
59	0xbd5a1068	-0.053238302
60	0x3e79d486	0.24397478
61	0xbc99baf2	-0.0187659
62	0x3e1f5e65	0.15563352
63	0x3cfff644	0.031245358
64	0x3e254458	0.16139352
65	0x3e2d8d75	0.16948493
66	0x3e043cf6	0.1291388
67	0xbd37a62e	-0.044836216
68	0xbdfc061e	-0.12305854
69	0xbc996782	-0.018726114
70	0x3e6bed76	0.23039803
71	0x3da1696f	0.07881438
72	0xbd77da98	-0.0605112
73	0xbe9f4592	-0.31107765
74	0x3d6609f4	0.056161836
75	0xbeb6a59d	-0.35673228
76	0x3dc589be	0.09645413
77	0xbe513751	-0.20431258
78	0x3dad779d	0.0847008
79	0x3c5467fc	0.012964245
80	0xbb88ed20	-0.004178658
81	0xbeb26399	-0.34841612
82	0xbf9afd0f	-1.2108477
83	0x3b110fec	0.0022134734
84	0xbe8becc9	-0.2732909
85	0x3ced3746	0.02895702
86	0xbe40b9b9	-0.18820848
87	0x3e3859ec	0.18003052
88	0xbdcc534f	-0.09976827
89	0xbe3de45b	-0.18544142
90	0x3e7441ab	0.23853175
91	0xbddb04ac	-0.106942505
92	0x3ede07b1	0.43365243
93	0x3da4b0bc	0.08041522
94	0xbe87a8d7	-0.26496002
95	0x3e283844	0.16427714
96	0xbe87a3cc	-0.26492155
97	0x3d04505c	0.0323032
98	0xbd1289a8	-0.03577581
99	0x3e0d5afe	0.13804242
100	0xbd5f6dfc	-0.05454825
101	0xbd69c230	-0.057069957
102	0x3e4590f5	0.19293578
103	0x3d02f19e	0.031968705
104	0xbec0d768	-0.37664342
105	0x3a7f5ece	0.0009741605
106	0xbe43de77	-0.19127832
107	0xbe4fc692	-0.20290592
108	0x3df43b79	0.11925406
109	0x3d17dba4	0.0370747
110	0xbaafaf47	-0.0013403677
111	0x3df9bb48	0.12193924
112	0xbc58fe0c	-0.013244163
113	0xbd8e986a	-0.069626644
114	0xbd2d8c73	-0.04237027
115	0x3d8c1861	0.068405874
116	0x3b116e86	0.0022191121
117	0x3ebcc815	0.368714
118	0xbdf14f86	-0.11782746
119	0xbf883d29	-1.0643665
120	0x3d467161	0.04844797
121	0x3e23d500	0.15999222
122	0x3e3ee5f9	0.18642415
123	0x3e22db4b	0.15903966
124	0xbe2ec953	-0.17068987
125	0x3c8c2062	0.017105285
126	0xbda3d4a6	-0.07999544
127	0x3d2fef2e	0.04295271
128	0xbdeb356e	-0.114848
129	0xbf401eab	-0.75046796
130	0x3d85469d	0.06507609
131	0x3d64facc	0.05590324
132	0xbb86f17d	-0.004118143
133	0x3dba8c69	0.09108812
134	0xbf77ee46	-0.9684795
135	0xbdfb0d1f	-0.12258362
136	0xbf4eb672	-0.8074714
137	0x3d59712a	0.053086437
138	0xbfaa99e3	-1.3328212
139	0xbf7bba9e	-0.9833163
140	0x3d999cbc	0.07500598
141	0xbe7655e9	-0.2405621
142	0x409985ba	4.797574
143	0x401aed22	2.4207234
144	0x3df56cc2	0.119836345
145	0x3f2a51ee	0.66531265
146	0x3e8f7867	0.28021547
147	0xbf6a8635	-0.91611034
148	0x3e52142b	0.20515506
149	0x3d676355	0.056491215
150	0x3e220ce7	0.15825234
151	0x3da2ee5b	0.07955619
152	0x3da9ac8a	0.08284862
153	0x3d83aee9	0.06429846
154	0xbf8daff7	-1.1069325
155	0xbfd02b73	-1.626326
156	0x3c16e846	0.009210652
157	0xbf29e73f	-0.6636848
158	0xbf20f53f	-0.62874216
159	0xbe96d8bb	-0.29462227
160	0xbedfae35	-0.43687597
161	0xbed4c83f	-0.41559026
162	0xbe0df3a6	-0.13862476
163	0xbd7c5bb7	-0.061610904
164	0xbf1ca643	-0.61191195
165	0xbebe2ed7	-0.3714511
166	0xbd843296	-0.06454961
167	0x3e48c8d9	0.19607867
168	0x3d91877c	0.0710592
169	0x3cff6224	0.031174727
170	0xbf1056e1	-0.56382567
171	0x3e374d0a	0.17900482
172	0xbb7c7aaa	-0.0038525262
173	0xbd2c39f6	-0.042047463
174	0xbf30c2ef	-0.69047445
175	0xbd5fbe04	-0.054624572
176	0xbf908c98	-1.1292906
177	0x3a605fce	0.0008559198
178	0x3e15f0d8	0.14642656
179	0x4000ebb8	2.0143871
180	0x3df30c33	0.11867561
181	0x3cefa6e4	0.029254384
182	0xbd7bb3b8	-0.06145069
183	0xbba1ec26	-0.004941481
184	0x3d712942	0.058877237
185	0x3c077992	0.008268731
186	0xbf980219	-1.187564
187	0xbd8cbb03	-0.06871607
188	0xbe8988e3	-0.2686225
189	0x3d92f4f2	0.07175626
190	0x3e7236d9	0.23653735
191	0x3e7a7fb1	0.24462773
192	0x3e64a568	0.22328722
193	0x3e68b455	0.22725041
194	0xbe3dde2f	-0.18541788
195	0xbc45f23d	-0.01208168
196	0x3dcf4756	0.10121028
197	0x3d43cc60	0.04780233
198	0xbeaadccb	-0.33371577
199	0xbd03816b	-0.032105844
200	0x3df06c60	0.11739421
201	0x3e955e67	0.29173586
202	0x3ca4f73f	0.020137427
203	0x402011a2	2.5010762
204	0x3e4b480f	0.19851707
205	0xbf21b635	-0.6316865
206	0x3bc123c0	0.0058941543
207	0xbc2cd636	-0.010549119
208	0x3be3ad18	0.0069481246
209	0xc01020ae	-2.2519946
210	0x402a7c32	2.6638303
211	0xbdbbb39c	-0.09165117
212	0x3f37698d	0.7164543
213	0x3d4238d7	0.047417488
214	0xbea6d992	-0.32587868
215	0x3e30e343	0.17274193
216	0xbf7732cc	-0.96561885
217	0xbf0c81cd	-0.5488556
218	0xbebceec4	-0.36900914
219	0x3f68b891	0.90906626
220	0xbefc4344	-0.4927007
221	0xbee29897	-0.44257042
222	0xc000f003	-2.0146492
223	0xbe76e825	-0.24111994
224	0x3f5efe15	0.8710645
225	0xbd03e1f6	-0.032197915
226	0x3ce3f5ec	0.027827226
227	0x3e308255	0.17237218
228	0xbb3f1f18	-0.002916282
229	0xbd320b6e	-0.04346793
230	0xbed6fdce	-0.41990513
231	0xbc7f538e	-0.015583886
232	0xbe41cb7f	-0.18925284
233	0xbd8277f4	-0.063705355
234	0xbf21ef34	-0.6325562
235	0x3f414773	0.7549965
236	0xbeef3fce	-0.46728367
237	0xbd8231c0	-0.06357145
238	0x3da38602	0.07984544
239	0x3e2d0bd0	0.16899037
240	0xbfb0c80f	-1.3811053
241	0x3c9e117c	0.019295447
242	0xbddbc48c	-0.10730848
243	0xbf891a78	-1.0711203
244	0xbc9a1ad1	-0.018811615
245	0xbfb27566	-1.3942077
246	0x3b95d11c	0.004572047
247	0x40435a5b	3.0523899
248	0xbbf406e0	-0.0074471086
249	0xbf0d8048	-0.55273867
250	0x3db9a577	0.09064763
251	0xbf290069	-0.6601625
252	0xbefecb5c	-0.49764526
253	0xbbf9fc56	-0.0076289577
254	0x3d740646	0.059576295
255	0x3c361c10	0.011115089

fc.1.bias f4 [5]
0	0xbbbd9323	-0.0057853623
1	0xbedd50b5	-0.43225637
2	0x3ea26076	0.3171422
3	0xbfb77f62	-1.4335749
4	0x3edd9b36	0.4328248

373 f4 [64, 42, 1, 1]
0	0x3b10f498	0.0022118445
1	0xbc2d41b3	-0.010574746
2	0xbd1d9deb	-0.03848068
3	0x3c952952	0.01820818
4	0x3d629e8b	0.05532698
5	0x3d0d65a4	0.03452076
6	0x3d8e112d	0.0693687
7	0x3d9394ae	0.07206093
8	0xbc332aa2	-0.010935457
9	0xbc92b604	-0.017909057
10	0xbc8e712a	-0.017387945
11	0xba01f552	-0.0004957515
12	0x3c96cc7e	0.018408056
13	0xbc92e6e2	-0.01793236
14	0x3c996efb	0.018729677
15	0xbe3ae3d6	-0.18250975
16	0x3ae93c9a	0.001779455
17	0xbec877c3	-0.3915387
18	0xbe2b3565	-0.16719587
19	0xbd4a107a	-0.04933212
20	0xbd8cf327	-0.06882315
21	0x3d3c1007	0.045913722
22	0x3d45381c	0.048149213
23	0x3d74c313	0.05975635
24	0xbd256096	-0.040375315
25	0x3ca1cb82	0.01975036
26	0x3c6200e4	0.013794158
27	0xbccc2c41	-0.024923446
28	0xbdc86c8b	-0.09786328
29	0x3d79cc4c	0.06098585
30	0xbd2bc16f	-0.04193252
31	0xbcb5279b	-0.022113612
32	0x3bf6ddac	0.0075337496
33	0xbc95baec	-0.018277608
34	0x3cbdb021	0.023155274
35	0xbdc2702f	-0.094940536
36	0x3e2874e6	0.16450843
37	0xbd6f8a12	-0.058481283
38	0x3c405dd3	0.011741119
39	0xbd460d7a	-0.048352696
40	0xbd4dac6e	-0.05021327
41	0x3d2bef72	0.0419764
42	0x3bb56cd2	0.005536654
43	0x3c435e16	0.011924287
44	0xbce8bb62	-0.028409664
45	0xbdf9ea48	-0.12202889
46	0x3d66e656	0.05637201
47	0xbca21686	-0.01978613
48	0xbd042a57	-0.03226694
49	0x3ded11b3	0.115756415
50	0x3d665bfb	0.056240063
51	0xbdc8137e	-0.09769343
52	0x3c100734	0.00879078
53	0xbcd34bb5	-0.025792936
54	0xbcba3452	-0.022730026
55	0xbbf995ee	-0.00761675
56	0xbe0c3417	-0.13691746
57	0xbd955ab5	-0.072926916
58	0xbde9c8b1	-0.11415232
59	0x3ec76bbd	0.38949385
60	0x3e93a8a1	0.2883959
61	0x3f29819c	0.66213393
62	0x3d465236	0.048418246
63	0x3ce7a2fa	0.028275955
64	0xbcb4c3c2	-0.022066
65	0xbe130a34	-0.14359361
66	0xbe5781dc	-0.21045631
67	0xbe4ba789	-0.19888128
68	0x3c358495	0.011078973
69	0x3cfcb5c9	0.0308484
70	0x3bdc655d	0.0067259506
71	0xbba1236d	-0.004917553
72	0x3d22d1d4	0.03975089
73	0x3c0be941	0.008539499
74	0xbc284887	-0.010271198
75	0xbca3e74c	-0.020007752
76	0x3c42ff36	0.011901667
77	0xbd50a440	-0.05093789
78	0x3e795856	0.24350104
79	0x3ccbdea6	0.02488644
80	0xbe3f1e3e	-0.1866388
81	0x3db0c2e8	0.086309254
82	0xbe1db001	-0.15399171
83	0xbcf7fec0	-0.030272841
84	0xbdd4e03f	-0.10394334
85	0xbd93f172	-0.072237864
86	0xbdbc2ef9	-0.09188647
87	0x3de782bc	0.113042325
88	0xbc6f3de4	-0.014602158
89	0xbbe7b204	-0.0070707817
90	0x3df2c90f	0.11854755
91	0xbc5a6a2a	-0.013330976
92	0x3d1c0598	0.038091272
93	0x3bd91f8b	0.0066260747
94	0x3bb90942	0.0056468556
95	0xbcae0eea	-0.021247346
96	0xbd2cb89a	-0.042168237
97	0xbd5dff8c	-0.054198787
98	0xbdadfefb	-0.08495899
99	0x3dd1ac59	0.10237951
100	0xbba4fc4d	-0.0050349594
101	0xbda482cf	-0.08032762
102	0xbeae407e	-0.3403358
103	0x3d7137d3	0.05889113
104	0xbb090825	-0.0020909396
105	0xbd4a0ea3	-0.049330365
106	0xbd0a6ba7	-0.03379407
107	0x3e113f14	0.14184219
108	0xbe2e9542	-0.17049125
109	0x3e2ad652	0.16683319
110	0x3b6efbb5	0.0036465947
111	0xbd29ec4f	-0.041485127
112	0xbdc34ee6	-0.09536533
113	0x3c290eb6	0.010318449
114	0x3d1b303b	0.037887793
115	0xbb5f9c2b	-0.0034120183
116	0x3bc2dc33	0.00594666
117	0x3cb90d5e	0.022589382
118	0x3a9360c5	0.001124405
119	0x3c30d059	0.010791861
120	0xbd2b4bf3	-0.041820478
121	0x3c986871	0.018604489
122	0xbb64f092	-0.003493343
123	0x3d62c23b	0.055361014
124	0xbcf3f57f	-0.029780148
125	0x3d59ce01	0.053174976
126	0xbe201aea	-0.15635267
127	0xbe370477	-0.17872797
128	0x3db53deb	0.088497005
129	0xbd3942ad	-0.045229603
130	0xbd7be392	-0.061496325
131	0xbd726925	-0.059182305
132	0x3e083d16	0.13304552
133	0x3de9222e	0.113834724
134	0xbccee612	-0.02525619
135	0xbbdc94bc	-0.0067315977
136	0xbdae78db	-0.08519145
137	0x3c758cbd	0.014987168
138	0xbd8cda20	-0.068775415
139	0x3d45fe12	0.048338003
140	0xbdc484e9	-0.09595663
141	0x3d775480	0.06038332
142	0xbd02b022	-0.031906255
143	0x3cfc4dbc	0.030798785
144	0xbe9a0f6a	-0.30089885
145	0x3e081845	0.13290508
146	0xbda54d4e	-0.08071385
147	0xbd96e67f	-0.073681824
148	0xbdb57a47	-0.08861213
149	0xbc21d3e4	-0.009877179
150	0x3e51f87e	0.20504948
151	0x3d89541a	0.06705494
152	0xbd3f1025	-0.046646256
153	0xbd525434	-0.051349834
154	0xbd049e32	-0.03237743
155	0x3e128d38	0.14311683
156	0xbdcce239	-0.10004086
157	0x3dc766d7	0.09736412
158	0xbdd79a1a	-0.105274394
159	0xbbca977d	-0.0061826096
160	0xbc10bc8e	-0.008834017
161	0xbd802f8f	-0.06259071
162	0xbda67644	-0.08128026
163	0xbe129194	-0.14313346
164	0xbdd533ed	-0.10410295
165	0x3df66f4a	0.120329455
166	0xbd129ef4	-0.03579612
167	0xbe53b506	-0.20674524
168	0xbe0093d1	-0.12556387
169	0xbd9883b7	-0.074469976
170	0x3db393e6	0.08768444
171	0x3d153ecc	0.03643684
172	0x3d78a506	0.060704254
173	0x3e0386c3	0.12844376
174	0xbd9e4033	-0.07727089
175	0x3b786384	0.0037901113
176	0xbd2d503b	-0.04231284
177	0xbd3f4a6c	-0.046701834
178	0xbc3f4203	-0.011673453
179	0x3cf6e301	0.03013754
180	0x3b7c2de2	0.0038479497
181	0x3dd7b1be	0.105319485
182	0x3c67511b	0.014118458
183	0xbcb80ac6	-0.022466075
184	0xbd818d37	-0.06325763
185	0xbc57816a	-0.013153413
186	0xbcef322e	-0.029198732
187	0xbdbc7fce	-0.09204064
188	0xbded75dc	-0.115947455
189	0x3d556e0d	0.052106906
190	0x3cb3b1f7	0.021935446
191	0xbd28d15e	-0.041215293
192	0xbcecb944	-0.028896935
193	0xbd0ca3d9	-0.034335945
194	0xbd278d0a	-0.04090599
195	0x3d059688	0.03261426
196	0x3ccfb9c7	0.02535714
197	0x3d5af571	0.053456727
198	0xbd78f9ff	-0.06078529
199	0x3d20a3b4	0.03921862
200	0xbced359c	-0.028956227
201	0x3d123a88	0.03570035
202	0xbd2053bf	-0.039142366
203	0x3c28192f	0.0102599105
204	0xbd99c873	-0.07508936
205	0xbd3a1b7d	-0.04543637
206	0x3d34cb73	0.044139337
207	0x3d75f8c5	0.0600517
208	0x3e651d2a	0.22374406
209	0xbc9d6d5d	-0.019217188
210	0x3e22da5b	0.15903609
211	0x3e0ecc2f	0.13945077
212	0x3980294d	0.00024444834
213	0xbd76ee04	-0.060285583
214	0x3d08c0c3	0.033386957
215	0xbdb39645	-0.08768896
216	0xbd7add6e	-0.061246328
217	0x3d2037d3	0.039115738
218	0x3deefafe	0.11668967
219	0xbe11b56a	-0.1422936
220	0x3cbfbe20	0.023406088
221	0xbcb79e31	-0.022414299
222	0xbd38ea9a	-0.04514561
223	0xbcc71108	-0.024300113
224	0xbdf9a7b7	-0.12190192
225	0x3caf37cc	0.02138891
226	0xbe235601	-0.15950777
227	0x3d3a7856	0.045524918
228	0xbda63a55	-0.08116595
229	0xbe035915	-0.12826951
230	0xbe8f1c02	-0.27951056
231	0xbda75291	-0.08170045
232	0xbdafdbbb	-0.08586832
233	0xbde43560	-0.11142993
234	0xbf1d244e	-0.6138352
235	0xbe096406	-0.13417062
236	0x3d93d13a	0.07217641
237	0xbe037eaa	-0.12841287
238	0x3da75c05	0.08171848
239	0x3e3152ac	0.17316693
240	0xbf009417	-0.5022597
241	0xbce8c105	-0.028412351
242	0x3cb9f80b	0.022701284
243	0xbd50949a	-0.050922967
244	0x3bd41b99	0.0064730165
245	0xbe6fa91f	-0.23404358
246	0xbd50db63	-0.050990473
247	0xbeb228a3	-0.34796628
248	0x3d8a29a4	0.067462236
249	0xbd042c43	-0.032268774
250	0xbe8b0742	-0.27153975
251	0xbe7b2f95	-0.2452987
252	0x3e595fc3	0.21227936
253	0x3e563b65	0.20921095
254	0xbe3bdd49	-0.18346132
255	0xbf1e5625	-0.61850196

374 f4 [64]
0	0x3e77d2c4	0.24201494
1	0x3f0b8726	0.54503095
2	0x3e927334	0.28603518
3	0xbf1ec4ee	-0.6201924
4	0xbfb68ca9	-1.4261676
5	0x3f95ec2c	1.1712699
6	0xbf07cec4	-0.53049874
7	0xbf6ed3c2	-0.93291867
8	0xbef87063	-0.48523244
9	0xbfcdc7e4	-1.6076627
10	0x3e97c796	0.2964446
11	0xbf70acc1	-0.940136
12	0xbe703161	-0.23456337
13	0xbe91dbae	-0.28487915
14	0xc00e0100	-2.218811
15	0x3f258fe9	0.64672714
16	0x3daccc7f	0.08437442
17	0x3e986108	0.2976153
18	0xbe0c0d29	-0.13676895
19	0xbd4818d6	-0.04885181
20	0x3e8c147a	0.27359372
21	0x3f784ffe	0.9699706
22	0xbef994a8	-0.48746228
23	0x3ffbba62	1.9666255
24	0x3eb37a26	0.3505413
25	0x3e9c30f1	0.3050609
26	0xbf8c5179	-1.0962363
27	0xbf6512e2	-0.8948194
28	0xbfaa5868	-1.330823
29	0xbfb59375	-1.4185625
30	0xbfa4f297	-1.2886533
31	0x3f89dd8f	1.0770739
32	0x3ef85142	0.48499495
33	0x3f1fb908	0.6239171
34	0x3ee24812	0.4419561
35	0xbf37e993	-0.7184078
36	0x3f45f5d8	0.7732825
37	0xbe9c70f1	-0.30554917
38	0x3f18941e	0.5960101
39	0x3f3ae747	0.7300915
40	0xbf1f07be	-0.6212119
41	0xbf12bb1b	-0.5731675
42	0xbf70fc46	-0.9413494
43	0xbf3780a2	-0.71680653
44	0x3e93861a	0.2881325
45	0xbe4b5cdc	-0.19859642
46	0x3f0a5f84	0.54051995
47	0x3f8b0ce3	1.0863308
48	0x3e022dbe	0.12712762
49	0xbf50f6d6	-0.8162664
50	0xbfb1183e	-1.3835523
51	0x3ee546f4	0.44780695
52	0x3f359023	0.7092306
53	0xbf001f0b	-0.5004737
54	0xbed8d566	-0.4235031
55	0xbfe4a33d	-1.7862316
56	0xbe590674	-0.21193868
57	0xbebfbbe9	-0.37448052
58	0x3ea2a3f8	0.31765723
59	0xbfb6abf0	-1.4271221
60	0x3f09119f	0.5354251
61	0xbf6b6b85	-0.91960937
62	0xbf82e46c	-1.0225959
63	0xbe20c7ca	-0.15701213

376 f4 [64, 64, 1, 1]
0	0x3cc4807c	0.023987047
1	0x3d4e8ec6	0.050429128
2	0x3d92e09a	0.071717456
3	0x3def5de3	0.11687829
4	0x3eb238c1	0.34808925
5	0xbe6a8b10	-0.2290461
6	0xbdd2c2d8	-0.1029107
7	0x3e899598	0.26871943
8	0xbd7fdd99	-0.06246719
9	0xbe393fd8	-0.1809076
10	0x3d186972	0.037209935
11	0xbecf6664	-0.40507805
12	0x3e3e8bf0	0.1860807
13	0x3e6e3cc3	0.23265366
14	0xbdccca4d	-0.09999523
15	0xbd26f8d6	-0.040764652
16	0xbe3f21b7	-0.18665205
17	0xbd9cdd29	-0.076593705
18	0x3e49e8b9	0.19717683
19	0x3cb53e5e	0.022124466
20	0x3aa87df6	0.0012854922
21	0x3a673036	0.00088191347
22	0xbbd5cdb9	-0.006524768
23	0x3e0582d8	0.13038194
24	0xbd75e24b	-0.060030263
25	0x3e5cb131	0.21551968
26	0xbe092651	-0.13393523
27	0x3c8008ed	0.015629256
28	0xbd587519	-0.052846048
29	0x3c0fe140	0.008781731
30	0xbe88abca	-0.26693565
31	0xbd82a5fb	-0.063793145
32	0xbe495181	-0.19659998
33	0x3e5375d1	0.20650412
34	0x3e305d01	0.17222978
35	0xbdf42e55	-0.119229
36	0x3e2500cc	0.16113585
37	0xbc7c3868	-0.015394308
38	0xbe68e8dc	-0.22745079
39	0xbebca393	-0.36843547
40	0x3de3526a	0.110997036
41	0x3e1c6d8e	0.15276167
42	0xbd6def45	-0.058089513
43	0xbf06fb47	-0.5272717
44	0x3de29b1b	0.1106474
45	0x3dc6dada	0.097097114
46	0x3e118562	0.14211038
47	0xbe4bceac	-0.19903058
48	0xbdba03ef	-0.090827815
49	0xbda58848	-0.08082634
50	0x3e4d9dc5	0.20079716
51	0xbe0e0933	-0.13870697
52	0x3ecb167f	0.396656
53	0x3cac5fcb	0.021041771
54	0xbd258137	-0.040406432
55	0xbd3de8bc	-0.04636453
56	0xbd8757bb	-0.0660853
57	0xbe637680	-0.22213173
58	0xbc871e41	-0.016493918
59	0xbdbac164	-0.091189176
60	0xbe889dc0	-0.26682854
61	0x3efb4bf6	0.4908139
62	0x3e137e42	0.14403632
63	0x3e1d3689	0.15352835
64	0xbe1b83fe	-0.1518707
65	0x3e0999d2	0.13437584
66	0x3e063108	0.13104641
67	0x3e895938	0.2682588
68	0x3e6dac4c	0.23210257
69	0xbf0bc89f	-0.54603
70	0x3e0a4abb	0.1350507
71	0xbe394437	-0.18092428
72	0xbf95dc4f	-1.1707858
73	0x3eea8683	0.4580575
74	0x3e4c20a2	0.19934323
75	0xbec2c08e	-0.38037533
76	0x3e33fd9b	0.17577212
77	0xbe01ebd3	-0.12687616
78	0x3e358fef	0.17730688
79	0xbe65a504	-0.2242623
80	0xbd951884	-0.072800666
81	0xbedecd55	-0.4351603
82	0x3dfad152	0.12246956
83	0x3e37a60b	0.17934434
84	0xbfa60dba	-1.2972939
85	0xbd077e15	-0.033079226
86	0x3db9e0a6	0.090760514
87	0x3ee62637	0.4495103
88	0xbe277898	-0.16354597
89	0x3e44f184	0.19232756
90	0x3f08c614	0.53427243
91	0x3d3c0bea	0.0459098
92	0xbdd60aa7	-0.104512505
93	0x3df6f367	0.12058144
94	0xbe1a2dcb	-0.15056531
95	0x3d9b3d8e	0.075801
96	0xbd8756f3	-0.06608381
97	0xbed7206d	-0.42016926
98	0xbebde98b	-0.37092242
99	0x3db1b9b5	0.08677999
100	0xbe911101	-0.28333285
101	0xbc94ffaf	-0.018188326
102	0x3e1a95f0	0.15096259
103	0x3bfd2c62	0.007726238
104	0xbe9c32ba	-0.3050745
105	0x3ea5a778	0.3235433
106	0xbec1c54c	-0.37845838
107	0xbd6cddd3	-0.057828736
108	0x3e0990b9	0.13434114
109	0x3e99be36	0.30027932
110	0xbda4050e	-0.080087766
111	0x3e13ad0c	0.14421481
112	0xbdd431e0	-0.103610754
113	0x3de76179	0.11297888
114	0xbf09fd18	-0.53901815
115	0x3d38436b	0.04498617
116	0xbe870ec6	-0.2637846
117	0xbe5b5ad9	-0.21421374
118	0xbc3fe820	-0.011713058
119	0x3d991015	0.074737705
120	0xbeb6c4cb	-0.35697016
121	0xbe1fd1a3	-0.15607314
122	0xbda75a54	-0.081715256
123	0x3d9e6ad6	0.07735221
124	0xbe30126c	-0.17194527
125	0xbeac6720	-0.33672428
126	0x3d8e8f8e	0.06960975
127	0x3c385650	0.011251047
128	0x3ceb2010	0.028701812
129	0xbd0bb7af	-0.03411072
130	0xbbc9beb5	-0.0061567673
131	0xbd5ab7c6	-0.053397916
132	0x3d68d955	0.05684789
133	0x3e612e4c	0.21990317
134	0xbe418193	-0.18897085
135	0xbcd0ddc6	-0.025496375
136	0xbbed45a9	-0.00724097
137	0x3d39fc51	0.045406643
138	0xbc9bc920	-0.019016802
139	0xbd8b0770	-0.06788528
140	0x3d8df62b	0.069317184
141	0x3dcbc8bb	0.09950396
142	0xbdacab15	-0.08431069
143	0xbe427952	-0.18991593
144	0x3dc8be64	0.09801939
145	0x3d860400	0.06543732
146	0x3db935e0	0.09043479
147	0x3dc5f05a	0.09664984
148	0x3d3dd083	0.04634143
149	0x3dac7ca6	0.08422212
150	0x3deb4993	0.114886425
151	0xbd7ce8b0	-0.061745346
152	0xbcbe5b0b	-0.023236772
153	0x3e202200	0.1563797
154	0xbd272b9a	-0.040813066
155	0x3e5988b7	0.21243559
156	0x3df214b2	0.118203536
157	0xbe4d39f3	-0.20041637
158	0xbe18a637	-0.14907156
159	0xbf057958	-0.5213828
160	0x3de6fcbf	0.11278676
161	0xbafa584c	-0.0019099801
162	0x3e17e468	0.14833224
163	0xbd22f6da	-0.039786197
164	0xbe407642	-0.18795112
165	0x3de51637	0.11185878
166	0x3e19f6e0	0.15035582
167	0x3c3d3ba4	0.011549864
168	0xbe1f42f6	-0.15552887
169	0x3cfbaef9	0.030723082
170	0xbd207708	-0.039176017
171	0xbda1522b	-0.078770004
172	0x3e2f38ac	0.17111462
173	0x3d2256df	0.039633628
174	0x3df9e12d	0.12201152
175	0xbe97c431	-0.2964187
176	0x3dbf8342	0.09351207
177	0x3de2b6b5	0.11070005
178	0x3e044f5c	0.12920898
179	0xbdda9b12	-0.106741086
180	0x3e6efdf4	0.23339063
181	0xbcc304c0	-0.023805976
182	0x3e4e888a	0.20169273
183	0x3cf918fc	0.030407421
184	0xbe7fea90	-0.24991822
185	0x3ea52d58	0.32261157
186	0x3d1787c6	0.036994718
187	0xbdd67664	-0.104718
188	0x3dd0b054	0.10189882
189	0x3dd4aa66	0.103840634
190	0x3ea09048	0.31360078
191	0xbb1bbf04	-0.0023764977
192	0x3d294416	0.041324697
193	0x3d73b444	0.059498087
194	0x3be28ee0	0.0069140047
195	0x3d9e5d81	0.07732678
196	0x3e068dca	0.13140026
197	0xbf3cdd4f	-0.7377519
198	0xbdeb5656	-0.11491077
199	0x3db992f7	0.090612344
200	0xbd7dfb37	-0.062007155
201	0xbe03e1bd	-0.12879081
202	0x3ca384c5	0.01996077
203	0xbe736b00	-0.23771286
204	0x3d0c1909	0.034203563
205	0xbafbb873	-0.001920475
206	0x3d9c48ca	0.07631071
207	0xbd9660c5	-0.07342676
208	0x3d2663b4	0.040622428
209	0xbe87624f	-0.2644219
210	0xbd656efc	-0.056014046
211	0x3c40e9de	0.011774508
212	0xbd51fd50	-0.05126697
213	0x3dc69585	0.09696487
214	0x3e44296e	0.19156429
215	0x3e60adfe	0.21941373
216	0xbd231a58	-0.039820045
217	0xbdb8ae8e	-0.09017669
218	0xbd405f9a	-0.046966173
219	0x3e0997a6	0.13436756
220	0xbcfb38e4	-0.030666776
221	0xbd29871a	-0.04138861
222	0x3de295e0	0.11063743
223	0xbdf7501d	-0.12075827
224	0xbdd0f4ea	-0.10202964
225	0xbcd72672	-0.02626345
226	0x3d8c9066	0.06863479
227	0x3c231804	0.009954456
228	0xbd759bc7	-0.059963014
229	0x3d692096	0.056915842
230	0xbc8987e4	-0.01678843
231	0xbe9beaa2	-0.30452448
232	0x3d0026de	0.031287067
233	0x3c6f4cb5	0.014605691
234	0xbd510661	-0.051031474
235	0xbe8d070e	-0.27544445
236	0xbd8f974d	-0.0701128
237	0x3d6bd803	0.05757905
238	0x3ca940a8	0.020660713
239	0xbc21daaf	-0.009878798
240	0x3d2f092f	0.042733368
241	0x3c85e12c	0.016342722
242	0xbccb40a5	-0.024811098
243	0x3e123bb4	0.14280587
244	0xbe5e48d4	-0.21707469
245	0xbdad65b6	-0.084666654
246	0xbd68f2da	-0.056872226
247	0xbc5539ef	-0.013014301
248	0xbc939604	-0.018015869
249	0x3e41a24a	0.18909565
250	0x3e20821e	0.15674636
251	0x3dbb4d35	0.091455854
252	0x3d329a25	0.043604035
253	0x3d481fd2	0.04885847
254	0xbbdc1d74	-0.0067173783
255	0x3c9a5f83	0.018844372

377 f4 [64]
0	0xbb398000	-0.0028305054
1	0x3fd6d085	1.6782385
2	0xbe7d383c	-0.24728483
3	0x3fa9f52b	1.3277944
4	0xc0489584	-3.1341257
5	0xbf19d6d1	-0.6009341
6	0x3f6f0e2f	0.9338102
7	0xbf5c0af6	-0.85954225
8	0xbf69525a	-0.91141284
9	0xbf8117e3	-1.0085415
10	0xbe7d478b	-0.24734323
11	0x3d6717c0	0.056419134
12	0xbe4a3b5c	-0.19749206
13	0xbe48840c	-0.19581622
14	0xbf3ebbc7	-0.74505275
15	0xbf99f50d	-1.2027909
16	0xbf9967d4	-1.1984811
17	0x3eadcf8c	0.33947408
18	0xc0561b73	-3.3454254
19	0x3e9c8239	0.30568102
20	0x3faf1b63	1.3680233
21	0x40224582	2.5354924
22	0x3f93bbca	1.1541684
23	0xc0174f96	-2.3642325
24	0xbeb108ca	-0.34577018
25	0xbff77b56	-1.9334514
26	0xbed93052	-0.42419678
27	0x3f197612	0.59945786
28	0xc0379ae6	-2.8688293
29	0x3e1da6de	0.15395686
30	0x3ec73d60	0.38914013
31	0x3f972dea	1.1810887
32	0x40006740	2.0063019
33	0xbe837fb3	-0.25683364
34	0xc014de85	-2.3260815
35	0xbf78f4a6	-0.97248304
36	0xbe53eee4	-0.20696598
37	0xbd9f0f00	-0.07766533
38	0xc03475fc	-2.8197012
39	0xbfaf4a06	-1.3694465
40	0xc041e8c2	-3.0298314
41	0x3f254320	0.6455555
42	0x3ff36604	1.9015508
43	0xbff2690e	-1.893831
44	0x3ec4e5f7	0.384567
45	0xbf255f5c	-0.6459863
46	0x3f6d140f	0.9260873
47	0xbd7b2130	-0.061310947
48	0xbfa1e092	-1.2646658
49	0xbe8fbca4	-0.2807361
50	0xbfc6d807	-1.5534676
51	0xbf5c6e75	-0.86106044
52	0xbe98ece0	-0.2986822
53	0x3fc4204d	1.5322357
54	0x3edef0f4	0.43543208
55	0x3fd2f921	1.6482278
56	0xbfd3211c	-1.6494479
57	0xbfa8913c	-1.3169322
58	0xbf42d7f2	-0.76110756
59	0xbfda93d5	-1.7076365
60	0xbf300f05	-0.6877292
61	0x3f89ac71	1.075575
62	0xbf136f1d	-0.5759142
63	0xbf803c4d	-1.0018402

379 f4 [64, 64, 1, 1]
0	0x3da3158b	0.07963093
1	0x3e050eb3	0.12993889
2	0xbcf50855	-0.0299112
3	0x3d919c67	0.071099095
4	0xbe8a9075	-0.27063337
5	0xbe1129c6	-0.14176092
6	0x3dbb2fcf	0.09139978
7	0x3d520f84	0.051284328
8	0xbc57d6be	-0.013173757
9	0xbd3910cf	-0.045182046
10	0xbd09d294	-0.03364809
11	0xbac76a9a	-0.0015214265
12	0x3c29864d	0.010346961
13	0xbe43b59b	-0.19112246
14	0xbe512dca	-0.20427623
15	0x3c88a053	0.016678011
16	0x3d6a0bf7	0.057140317
17	0xbe6f593e	-0.23373887
18	0xbd68f5e1	-0.056875113
19	0xbe70c2d8	-0.23511827
20	0xbeba5461	-0.363925
21	0xbe0886ee	-0.13332722
22	0x3e80d45c	0.25162017
23	0xbd756d78	-0.05991885
24	0x3d171110	0.036881506
25	0xbd9af8e9	-0.07567007
26	0xbdf6e903	-0.12056162
27	0xbd1d942c	-0.038471386
28	0xbd3a6f6a	-0.04551641
29	0xbdc2c761	-0.09510685
30	0xbddea8af	-0.108720176
31	0x3d0a5f4a	0.03378228
32	0x3e834936	0.25641793
33	0xbdf7d7fa	-0.12101741
34	0xbcba5cde	-0.02274936
35	0xbe585fc5	-0.21130283
36	0x3d7fa4a2	0.062412865
37	0x3df2a457	0.118477516
38	0xbe081cd8	-0.13292253
39	0xbd9f7899	-0.07786674
40	0xbb3926d2	-0.0028251898
41	0xbe30109e	-0.17193839
42	0x3c21cfde	0.00987622
43	0x3ca8c6b0	0.020602554
44	0x3ba9d72c	0.005183121
45	0xbe82e5bf	-0.25565907
46	0xbe2bdb00	-0.1678276
47	0x3e079fc2	0.13244537
48	0x3e3e96ac	0.18612164
49	0xbdc97fd9	-0.09838838
50	0x3d0239b7	0.031793322
51	0xbe9320f3	-0.28736076
52	0xbd6bb904	-0.05754949
53	0x3c483e96	0.012221953
54	0xbdb12933	-0.08650436
55	0x3d0fbd4d	0.03509264
56	0xbe24943a	-0.16072169
57	0xbd77a72d	-0.060462166
58	0x3d9f16e0	0.07768035
59	0xbe3abf75	-0.18237098
60	0xbd8a63f7	-0.06757348
61	0xbde1c890	-0.110245824
62	0x3d9b99ee	0.07597719
63	0xbd2367eb	-0.039894026
64	0xbe8eeb4c	-0.27913892
65	0xbe97c522	-0.29642588
66	0x3e907b31	0.28218988
67	0xbec78132	-0.38965756
68	0xbe9e9100	-0.3097
69	0xbe424657	-0.18972145
70	0x3eb8ce4c	0.36094892
71	0x3eda4d99	0.42637327
72	0x3ed40a2f	0.4141402
73	0x3d953443	0.07285359
74	0x3e18d664	0.14925534
75	0x3e4fe7d0	0.20303273
76	0x3dcccce5	0.10000018
77	0xbe1d2811	-0.15347315
78	0x3dfb9e82	0.12286092
79	0x3e804315	0.2505118
80	0xbed3c3b1	-0.41360238
81	0x3e4bd37e	0.19904897
82	0xbd4f0521	-0.050542
83	0xbe47d455	-0.19514592
84	0x3d85d8c4	0.065354854
85	0xbe48b32d	-0.195996
86	0xbe36476a	-0.1780068
87	0x3e7f8475	0.24952872
88	0xbe1eeb9f	-0.1551957
89	0x3c94e5dd	0.018176014
90	0x3d8890a7	0.06668215
91	0xbc576ffd	-0.013149259
92	0x3cfbfaec	0.030759297
93	0xbea3c85d	-0.31988803
94	0x3e2e9449	0.17048754
95	0xbe9d3056	-0.3070094
96	0xbccfe779	-0.02537893
97	0xbd0cb64c	-0.03435354
98	0x3e5eb4eb	0.21748702
99	0x3df72b5d	0.12068818
100	0x3ce55c41	0.027998092
101	0x3d718a6b	0.058969896
102	0x3ec4fd04	0.38474286
103	0xbe82ae7d	-0.2552375
104	0x3d7b70c9	0.061386857
105	0xbd3c5ae8	-0.045985132
106	0xbe3aaaf0	-0.1822927
107	0x3ea5082f	0.32232806
108	0xbb371ea9	-0.002794186
109	0xbe83a6b2	-0.25713116
110	0xbdfc26d1	-0.12312091
111	0xbee5f132	-0.4491058
112	0x3c195ecf	0.009360983
113	0x3d6201f8	0.05517766
114	0x3e64d2b2	0.22345999
115	0xbeb48737	-0.3525941
116	0xbd6f51e4	-0.058427706
117	0xbbb59b28	-0.0055421777
118	0xbda183b0	-0.078864455
119	0xbd9fec2d	-0.07808719
120	0xbd6de7ad	-0.05808227
121	0xbe94fde1	-0.29099944
122	0x3e8f358f	0.2797055
123	0x3ea2020b	0.31642184
124	0xbe461b83	-0.19346432
125	0xbe38c9a9	-0.18045677
126	0x3e90560b	0.28190646
127	0x3d757130	0.059922397
128	0x3ceb38dc	0.028713636
129	0xbd4c15c7	-0.049825456
130	0x3d0a8f43	0.03382803
131	0xbd106ec3	-0.03526188
132	0xbe091e7d	-0.13390537
133	0xbe83a7ac	-0.2571386
134	0x3e111959	0.14169826
135	0xbe6e7d3b	-0.23289959
136	0x3c4a8079	0.012359732
137	0x3d6462a1	0.055758122
138	0xbc358797	-0.01107969
139	0x3dc2d660	0.09513545
140	0xbba122da	-0.0049174847
141	0xbf1b9c8f	-0.60785764
142	0xbd1446e1	-0.036200408
143	0x3d16a927	0.03678241
144	0x3db45d91	0.08806909
145	0xbe3a0d70	-0.18169188
146	0xbe630f71	-0.22173859
147	0xbe9e229a	-0.30885774
148	0x3dc524fb	0.09626194
149	0x3db59205	0.08865742
150	0x3e046b88	0.12931645
151	0xbe8da0d2	-0.2766176
152	0xbd8c89a2	-0.06862189
153	0xbd7bb080	-0.06144762
154	0xbe4934f6	-0.19649109
155	0xbdeb4750	-0.11488211
156	0xbe2e5b01	-0.17026903
157	0x3ed4e837	0.41583416
158	0xbe4185bb	-0.1889867
159	0x3d779620	0.060445905
160	0x3d12371c	0.035697088
161	0xbd169e73	-0.036772203
162	0xbe8e339c	-0.2777375
163	0xbe8aa771	-0.27080873
164	0xbebb05c2	-0.3652783
165	0xbe4fb9b7	-0.20285688
166	0xbe545b05	-0.20737846
167	0xbe1aad31	-0.1510513
168	0xbed0cf1d	-0.40783015
169	0x3dea71ea	0.11447509
170	0xbcfc92dc	-0.030831747
171	0xbd857c06	-0.06517796
172	0x3d9d8b5f	0.076925986
173	0xbda34437	-0.07971995
174	0xbe63d72e	-0.22250053
175	0x3e0c83db	0.13722174
176	0xbe51a2b3	-0.20472221
177	0x3dc08d73	0.09401979
178	0x3e1255d1	0.14290549
179	0x3c470b95	0.012148757
180	0x3dc1859c	0.09449312
181	0xbe6acbf6	-0.22929367
182	0x3e4a4e37	0.19756399
183	0xbd33b14b	-0.04387025
184	0xbf163d53	-0.58687323
185	0xbe755297	-0.23957287
186	0xbdd73633	-0.105083846
187	0xbdf05f52	-0.11736931
188	0x3d5f2cda	0.054486133
189	0xbf2f68eb	-0.6851947
190	0x3e040b2e	0.1289489
191	0xbeb6a88f	-0.35675475
192	0x3e38fad8	0.1806444
193	0x3f01be3e	0.5068091
194	0xbdc49852	-0.09599365
195	0xbf072b7f	-0.52800745
196	0xbf08bb82	-0.53411114
197	0x3ffe5408	1.9869394
198	0xbef5a6e5	-0.47978893
199	0xbf16c260	-0.5889034
200	0xbea991e1	-0.3311911
201	0xbf00d60b	-0.50326604
202	0xbe887b2e	-0.2665648
203	0xbe9de967	-0.30842134
204	0xbc68969b	-0.014196063
205	0x3e958092	0.29199654
206	0x3f93dd38	1.1551886
207	0xbe7eb95c	-0.24875396
208	0xbaaa35cd	-0.0012986005
209	0x3f81fd49	1.0155421
210	0xbebd3629	-0.36955383
211	0x3f300291	0.68753916
212	0x3f870576	1.0548542
213	0xbe8ad15e	-0.2711286
214	0x3eb51fda	0.35375863
215	0x3e2eaf1d	0.17058988
216	0xbec8ad7e	-0.39194864
217	0x3fbd56b5	1.4792086
218	0xc030b6d5	-2.7611592
219	0xbf72a5e0	-0.94784355
220	0xbe4970e3	-0.19671969
221	0xbdcf1aea	-0.10112555
222	0x3e6dd480	0.23225594
223	0x3ecc698a	0.3992427
224	0xbd0e310a	-0.034714736
225	0xbf1ba8ff	-0.6080474
226	0xbedd3856	-0.43207043
227	0xbeb46356	-0.35232037
228	0xbd810a1b	-0.063007556
229	0x3cb08cda	0.021551538
230	0xbf502c4e	-0.81317604
231	0x3e9da9e4	0.3079368
232	0x3ec7294f	0.38898703
233	0x3f94121a	1.1568024
234	0xbe89d3a6	-0.26919287
235	0x3d409675	0.047018487
236	0x3e00b394	0.12568504
237	0x3e71e6e0	0.23623228
238	0xbf0985c4	-0.53719735
239	0x3e7c5e13	0.24645261
240	0x3e884377	0.26613972
241	0x3f411a3d	0.7543066
242	0x3c8c0a1e	0.017094668
243	0x3df1565d	0.117840506
244	0x3fa1a4f5	1.2628466
245	0xbea02119	-0.31275252
246	0xbf01dc58	-0.5072684
247	0x3f436301	0.7632294
248	0x3f5724ca	0.8404051
249	0x3f8bd1b7	1.0923375
250	0x3eb08199	0.34473875
251	0xbfdd43dd	-1.7286335
252	0x3d9b5617	0.0758478
253	0x3e16896f	0.14700864
254	0x3f1ef160	0.6208706
255	0xbf564f4c	-0.8371475

380 f4 [64]
0	0xbccb05e8	-0.02478309
1	0x3ff92955	1.9465739
2	0x3f93a20b	1.1533827
3	0xbfe0a587	-1.7550515
4	0x3f1ea017	0.6196303
5	0x409e00d5	4.9376016
6	0x402f11d6	2.7354636
7	0x3d039e38	0.03213331
8	0x3f9c0f17	1.2192105
9	0x3f2bf513	0.6717083
10	0x3f0555f2	0.5208427
11	0x3eac87d6	0.33697385
12	0x3f609137	0.8772158
13	0xbf8c504a	-1.0962002
14	0xbde1e66c	-0.110302776
15	0x4017b28c	2.3702726
16	0xbfcecb78	-1.6155844
17	0x3d186378	0.037204236
18	0x3ece91e3	0.40345678
19	0xbfad27e4	-1.3527799
20	0x3f69c97f	0.91323084
21	0x3c549410	0.012974754
22	0xbfdbb2b0	-1.7163906
23	0xbe579456	-0.2105268
24	0xbf448eaf	-0.7678022
25	0x3ea7e3f2	0.32791096
26	0x3f6229d4	0.88345075
27	0x3f117d07	0.568314
28	0xbf1126d7	-0.5669989
29	0x3f5ca27a	0.8618542
30	0xbf2a8d55	-0.66621906
31	0xbf03aa43	-0.51431674
32	0x3c37d8c0	0.011221111
33	0x3db03164	0.086031705
34	0xbfaf6e93	-1.370562
35	0x3e6b1cc4	0.22960192
36	0xbfc572e8	-1.5425692
37	0x3f443bc1	0.7665368
38	0xbf962d42	-1.1732562
39	0xbd22cc18	-0.03974542
40	0xbfd3b6fe	-1.654022
41	0x3f37d683	0.71811694
42	0xbe1c1f6a	-0.15246359
43	0x3f5d2865	0.8638976
44	0x3ebe1f25	0.37133136
45	0x3f099096	0.53736246
46	0x400475e6	2.069696
47	0x3dcb0408	0.09912878
48	0xbeab431c	-0.33449638
49	0x3f716b96	0.9430479
50	0x3f468116	0.7754072
51	0xc05114e7	-3.2669008
52	0x3f78e886	0.972298
53	0x3f85add9	1.0443679
54	0x3f910082	1.132828
55	0xbe56751c	-0.20943111
56	0x3f5bffb2	0.85937035
57	0xbf5aacb7	-0.8541979
58	0x3ffabd98	1.958911
59	0x3e5c494c	0.21512336
60	0x3e9a48a0	0.30133533
61	0x3f7245ce	0.94637764
62	0x3ed28f1c	0.4112481
63	0xbf4fa74c	-0.8111465

382 f4 [64, 21, 1]
0	0x3de0a653	0.10969224
1	0x3e0f0b81	0.13969232
2	0x3e312beb	0.1730191
3	0x3d5c175e	0.053733222
4	0xbe103b52	-0.14085129
5	0xbc7c1f01	-0.015388251
6	0xbebbafe4	-0.3665763
7	0xbe813d9a	-0.2524231
8	0xbd0f9631	-0.035055343
9	0xbd71086e	-0.05884593
10	0xbca82706	-0.02052642
11	0x3ccc0545	0.024904856
12	0x3c8885b1	0.016665312
13	0xbc139796	-0.009008309
14	0xbdce08e4	-0.100602895
15	0x3e79db65	0.24400099
16	0xbe3b5d63	-0.18297343
17	0x3e9af558	0.30265307
18	0x3eae25e8	0.34013295
19	0x3f07949c	0.52961135
20	0x3e1802a0	0.14844751
21	0xbe9b6708	-0.30352044
22	0xbe61f25a	-0.22065106
23	0xbe0d5275	-0.13800986
24	0xbebe67bb	-0.37188515
25	0x3d5d5006	0.054031394
26	0xbc00aef4	-0.007854212
27	0x3d4ef11f	0.05052292
28	0x3d24d16d	0.040238786
29	0x3be190cf	0.0068837176
30	0x3dc6bc36	0.09703867
31	0xbcbd63ad	-0.023118818
32	0xbab0b8e9	-0.0013482842
33	0x3c8b6d3c	0.01701986
34	0xbc0b62e2	-0.008507462
35	0xbc49be4d	-0.012313438
36	0x3dfd9d10	0.12383473
37	0xbd7e5531	-0.062092964
38	0xbdc73e9a	-0.09728737
39	0xbb9417e2	-0.0045194486
40	0x3e120602	0.14260104
41	0xbe23baf3	-0.15989284
42	0x3da4019d	0.0800812
43	0x3d27e7d3	0.04099257
44	0x3ec03d30	0.37546682
45	0xbf0c47f3	-0.54797286
46	0xbbe547ec	-0.006997099
47	0xbd0a5ec3	-0.033781778
48	0x3f49a328	0.7876458
49	0xbd77f189	-0.06053308
50	0x3d53d76a	0.051719107
51	0x3debb7ed	0.115096904
52	0x3b478155	0.0030442078
53	0x39a87c8d	0.00032136255
54	0xbdd53f2e	-0.10412441
55	0x3e1830cb	0.14862363
56	0xbd83fe8d	-0.06445036
57	0x3f21e871	0.632453
58	0x3d98a9e7	0.07454281
59	0xbe97f418	-0.29678416
60	0xbc3086e1	-0.010774345
61	0x3f4eec49	0.8082929
62	0x3e57b732	0.21065977
63	0x3cb26911	0.021778615
64	0x3d075f4b	0.033049863
65	0x3ebae559	0.36503103
66	0x3d0bb326	0.034106396
67	0x3d7a87b4	0.061164573
68	0x3c101e3a	0.008796269
69	0x3cc2e4e7	0.02379079
70	0x3dbc153f	0.0918374
71	0xbd6abae6	-0.057307146
72	0xbcee34a9	-0.029077845
73	0xbc77c1ba	-0.015121872
74	0x3c4273e1	0.011868448
75	0xbca9b470	-0.020715922
76	0x3ccda371	0.025102349
77	0x3e157a98	0.14597547
78	0xbde13a4f	-0.109974496
79	0x3d52c2ac	0.051455185
80	0x3d174747	0.03693321
81	0xbd13574d	-0.03597193
82	0xbd2c6ddc	-0.042096958
83	0xbdb4bb4f	-0.08824789
84	0xbe9bbce8	-0.30417562
85	0xbcdf5bcd	-0.027265454
86	0xbf7b0197	-0.980493
87	0xbd24f806	-0.040275596
88	0x3e7209a1	0.23636486
89	0xbb803e8e	-0.003913707
90	0x3e2bec3e	0.16789338
91	0x3f48ebad	0.7848461
92	0x3d99a863	0.0750282
93	0x3df346a1	0.11878706
94	0xbaa5b8a1	-0.0012643525
95	0xbc6c91a1	-0.0144390175
96	0x3c91cce4	0.017797895
97	0x3c8aba9b	0.016934684
98	0xbd453c97	-0.048153486
99	0x3e736260	0.23767996
100	0xbda9cd30	-0.082910895
101	0x3e8b4357	0.27199814
102	0x3e2ef8cd	0.17087097
103	0x3f9681b2	1.175833
104	0x3f058eaf	0.5217084
105	0xbc5c3b9f	-0.013441949
106	0xbd4d22ed	-0.050082136
107	0x3d302f6c	0.043013975
108	0xbdf3f923	-0.119127534
109	0xbd85d04e	-0.065338716
110	0x3c3c74e8	0.011502482
111	0xbdb4137e	-0.0879278
112	0x3cc50ecd	0.02405491
113	0xbd1fe754	-0.03903897
114	0xbbabd536	-0.0052439226
115	0x3c07e8a8	0.008295216
116	0xbb1c1689	-0.0023817143
117	0xbc09358c	-0.008374583
118	0xbb54db41	-0.0032479318
119	0xbc8ad124	-0.01694543
120	0x3c6dad26	0.014506614
121	0xbc18171b	-0.0092828525
122	0xbc58e824	-0.01323894
123	0xbb4b0049	-0.0030975512
124	0xbe00e865	-0.12588651
125	0x3b52f87e	0.003219157
126	0xbd7cd81d	-0.06172954
127	0xbc85b311	-0.016320737
128	0x3c575815	0.013143559
129	0xbd3a9909	-0.045556102
130	0x3d25f06d	0.04051249
131	0x3c016c90	0.0078994185
132	0x3db6ff84	0.089354545
133	0xbc7eebf7	-0.015559188
134	0x3da3ec50	0.080040574
135	0x3c375a72	0.011190997
136	0x3b5778ad	0.0032878325
137	0x3a856677	0.0010177632
138	0x3b019425	0.001977214
139	0xbb14fb50	-0.0022732802
140	0xbc22e81b	-0.009943034
141	0x3cfecdb0	0.031103939
142	0x3cd894db	0.026438167
143	0x3cb07b40	0.021543145
144	0xb982a232	-0.00024916377
145	0xbd55959f	-0.052144643
146	0x3d88fab7	0.06688445
147	0x3f8e231d	1.1104466
148	0xbfa11a61	-1.2586175
149	0x3f7da69c	0.9908235
150	0x3d9d271f	0.076734774
151	0xbf8a7e43	-1.0819782
152	0x3c60e7a8	0.013727106
153	0xbe5aad89	-0.21355261
154	0xbd2f569a	-0.0428072
155	0x3d2c1edd	0.04202162
156	0xbd0273b5	-0.031848628
157	0x3c490be0	0.012270898
158	0xbcb926ce	-0.022601511
159	0x3bd06e8b	0.006360834
160	0xbc2d0d8d	-0.010562313
161	0x4073eb85	3.81125
162	0xc078d274	-3.887845
163	0x3e00f7b3	0.1259449
164	0x3d58e065	0.052948374
165	0xbd7e309d	-0.06205808
166	0x3df3576b	0.11881908
167	0x3efe7163	0.49695882
168	0xbddde87b	-0.10835358
169	0x3df0f6aa	0.117657974
170	0xbf203fae	-0.6259717
171	0xbf1af61d	-0.6053179
172	0x3e047e5e	0.1293883
173	0x3c996d4d	0.018728876
174	0x3e2cc2a7	0.16871129
175	0x3ea1db4d	0.31612626
176	0x3d9429f9	0.07234568
177	0xbd704f85	-0.058669586
178	0x3c7fd39f	0.015614419
179	0xbc60c82e	-0.013719602
180	0xbce374e2	-0.027765695
181	0xbd4585ad	-0.048223186
182	0xbda7cdf7	-0.081935816
183	0x3ee9332d	0.45546857
184	0x3e6516c0	0.2237196
185	0x3eabb7a4	0.33538544
186	0xbf1a8ba8	-0.6036935
187	0x3e25d049	0.16192736
188	0x3f0f1ca6	0.5590309
189	0xbc259076	-0.010105243
190	0xbd9e867d	-0.07740495
191	0x3da6f971	0.08153046
192	0x3dbceedf	0.092252485
193	0xbe086e96	-0.13323435
194	0x3ca93f13	0.020659959
195	0x3e091b66	0.13389358
196	0x3d0df87b	0.034660798
197	0xbbc57b99	-0.006026697
198	0x3d276e3b	0.04087661
199	0xbed37e83	-0.41307458
200	0x3d03e6b1	0.032202426
201	0xbcebbfea	-0.028778035
202	0x3c7cf9f0	0.015440449
203	0xbb9ce326	-0.0047878204
204	0xbca78d26	-0.020453047
205	0xbcc9ca01	-0.024632456
206	0xbc090620	-0.008363277
207	0x3b39148c	0.0028241007
208	0x3c267b1d	0.010161188
209	0xbdf73140	-0.120699406
210	0xbd4c01e4	-0.04980649
211	0x3dc79784	0.09745696
212	0x3f31d4e2	0.6946546
213	0x3d9efd21	0.07763124
214	0xbdbf1618	-0.09330386
215	0xbb4d85ad	-0.0031360195
216	0x3de73628	0.11289626
217	0xbe47962f	-0.19490884
218	0x3e0263e0	0.12733412
219	0xbeb577fb	-0.354431
220	0xbd226b1f	-0.03965294
221	0x3cbd991a	0.023144294
222	0x3bf96016	0.0076103313
223	0xbc861326	-0.016366553
224	0x3d0b48b2	0.034004875
225	0xbf0348b3	-0.51282805
226	0xbe20a3a9	-0.15687431
227	0x3f94a57d	1.1613003
228	0xbe7c5f0e	-0.24645635
229	0x3fc7e22b	1.5615896
230	0xbe40ac64	-0.18815762
231	0x3da1c8a3	0.078995965
232	0x3e0ae823	0.13565116
233	0x3f7c1fcf	0.98486036
234	0x409fb105	4.990359
235	0xbc6c3224	-0.014416251
236	0x3cbc9cc0	0.023023963
237	0xbe8cdca5	-0.27512088
238	0x3ea6d29e	0.32582563
239	0xbd6c19cf	-0.0576418
240	0x3ed756c9	0.420584
241	0x3d14da95	0.03634127
242	0xbc78c164	-0.015182827
243	0x3e3e5fbb	0.18591206
244	0xbde53781	-0.11192227
245	0xbedb962f	-0.42888018
246	0x3f288166	0.65822446
247	0x3f0bb753	0.54576606
248	0x3df5a7ae	0.11994873
249	0xbe1a3cf2	-0.15062311
250	0x3ed6f93c	0.41987026
251	0xbdc9030a	-0.09815033
252	0xbe28bbb7	-0.16477858
253	0xbdb0519a	-0.08609314
254	0xbf1e37af	-0.61803716
255	0x3fb9afe1	1.4506799
